weights/LENET_CIFAR10.pt (torch, 252108 bytes, 14 tensors)

conv1.weight f4 [6, 3, 5, 5]
0.009569873 -0.09994104 -0.11197997 -0.13857993 0.06319331 -0.05237259 -0.07121609 -0.069988966
0.023398617 -0.08672689 -0.05755634 -0.08491409 -0.1592366 -0.17325038 -0.0966325 -0.1273019
-0.029700132 -0.11699584 -0.056652617 -0.11904224 -0.24765642 -0.2733785 -0.21397057 -0.059235774
-0.11700821 -0.031246131 -0.010843745 -0.012537907 0.099567816 0.1290133 -0.085573 0.14449938
0.005232339 0.062007334 0.033386353 0.031706944 -0.053089462 0.07253757 -0.017788814 0.11754256
0.09032212 0.07767791 0.22405508 0.18497701 0.091634266 -0.17898679 -0.09548038 0.10998508
-0.009681875 0.11044577 -0.03356972 -0.0064524706 0.09150726 0.07024555 0.06835737 0.08196359
-0.010406041 0.0781281 0.0012901196 -0.039810706 0.023482915 0.015351168 -0.0045793876 -0.00029498938
-0.06676154 0.21087664 0.24555157 0.1374013 0.24790128 0.1621124 -0.027742181 0.06287274
0.055899095 0.146389 0.005852068 0.14651151 -0.23172444 -0.08003883 -0.096024595 -0.009388375
-0.21370791 -0.4133498 -0.112720214 0.17296402 0.08733217 -0.16861735 -0.06497073 0.12982562
0.17767443 0.060921982 -0.043893445 -0.011723536 0.13471669 0.06636943 -0.0676922 -0.006827242
0.08034936 0.12969786 -0.0055008894 0.061174 0.119191006 -0.23248844 -0.26167768 0.045467135
0.06919087 -0.1802879 -0.304777 0.051347833 0.31913468 0.19884236 -0.02071812 -0.031270273
0.0673577 0.39529815 -0.020959789 -0.024436893 -0.10717241 0.111745104 0.15731557 -0.00011661829
-0.019423436 -0.012379209 0.18223153 0.07844432 -0.15173416 0.10663302 -0.25380543 -0.23306677
0.012451035 -0.013802411 -0.024965081 -0.17569944 -0.029163955 0.16600801 0.1362089 0.010764642
-0.067857996 0.021878447 0.2186813 0.0549458 -0.13564974 -0.013087464 0.10181982 0.019594153
-0.11339268 -0.054376278 0.11470041 -0.031815127 -0.016804295 0.014517053 -0.08813455 0.029232599
0.031902347 0.007033946 -0.026285427 0.039833013 -0.043327395 -0.01932203 0.066010825 0.13898644
-0.10729516 0.060187805 -0.0602533 -0.12097425 0.05730631 0.054933704 0.016771132 0.036634758
0.03011502 0.054311454 0.05469234 -0.2487508 -0.03497054 0.04163702 -0.0008529754 0.033964448
-0.023596827 0.20084147 0.09789023 0.17009501 0.13133286 0.17951903 -0.081935875 0.16343361
0.12121468 -0.09220725 0.13794371 0.13755514 -0.121039376 0.104873136 0.027970778 -0.099803925
0.10977851 0.13350365 0.057103965 0.0381394 -0.09267068 0.1185143 0.09416912 0.013671315
-0.07108288 -0.08773411 -0.08590649 -0.056145493 -0.161904 -0.005152896 -0.18974687 -0.06511535
-0.19588865 -0.07477852 -0.17547272 0.14085658 -0.11645439 -0.24713175 -0.02615106 -0.11537284
-0.16097799 0.07178116 -0.03586196 0.050926235 0.16854565 -0.129651 0.09507623 -0.084627345
-0.0625051 0.18037967 0.3306404 0.2539515 0.34756327 0.017434213 0.17271715 0.0031931368
0.09494424 -0.08354788 -0.04928366 -0.09991814 -0.21488766 -0.22374585 -0.27365994 0.08932377
-0.11581278 -0.032039873 -0.105902724 0.007643108 -0.11015604 -0.07668949 -0.0308631 0.078261785
0.14779238 0.06605653 -0.0733605 0.23188326 0.19975695 0.24000081 -0.07283689 -0.0539538
00000000: f5ca 1c3c e3ad ccbd c155 e5bd e6e7 0dbe
00000010: 7e6b 813d a484 56bd bed9 91bd 6056 8fbd
00000020: 75ae bf3c de9d b1bd 32c0 6bbd 70e7 adbd
00000030: eb0e 23be 8c68 31be 43e7 c5bd 6e5b 02be
00000040: b14d f3bc 849b efbd 930c 68bd 6bcc f3bd
00000050: a599 7dbe 44f8 8bbe 1a1b 5bbe 36a1 72bd
00000060: 00a2 efbd e3f7 ffbc f7a9 31bc cb6b 4dbc
00000070: 36ea cb3d 101c 043e e640 afbd a5f7 133e
00000080: 0a74 ab3b 67fb 7d3d 21c0 083d 24df 013d
00000090: 5674 59bd 948e 943d d9b9 91bc 27ba f03d
000000a0: cefa b83d 9915 9f3d b26e 653e 9d6a 3d3e
000000b0: bfaa bb3d 5048 37be 388b c3bd dc3f e13d
000000c0: baa0 1ebc 6431 e23d 6780 09bd 3f6f d3bb
000000d0: 2968 bb3d e6dc 8f3d f3fe 8b3d 87dc a73d
000000e0: 197e 2abc a001 a03d 3b19 a93a 8d10 23bd
000000f0: 3e5f c03c 7783 7b3c b00e 96bb cea8 9ab9
00000100: 46ba 88bd 0cf0 573e df71 7b3e edb2 0c3e
00000110: d5d9 7d3e cb00 263e 9243 e3bc 6cc3 803d
00000120: 73f6 643d ffe6 153e b4c2 bf3b 1d07 163e
00000130: 2c49 6dbe 66eb a3bd 8ba8 c4bd b3d1 19bc
00000140: 3fd6 5abe 96a2 d3be dbd9 e6bd 7b1d 313e
00000150: 35db b23d 07aa 2cbe 600f 85bd 02f1 043e
00000160: 49f0 353e 5489 793d 9dc9 33bd 1314 40bc
00000170: 2cf3 093e b2ec 873d 35a2 8abd 0fb7 dfbb
00000180: 358e a43d 84cf 043e ce40 b4bb 9791 7a3d
00000190: 6a1a f43d 7311 6ebe 9efa 85be bf3b 3a3d
000001a0: f1b3 8d3d 649d 38be bb0b 9cbe 1b52 523d
000001b0: 9f65 a33e 559d 4b3e 0cb9 a9bc 4215 00bd
000001c0: d5f2 893d 8564 ca3e ddb3 abbc e12f c8bc
000001d0: 357d dbbd 9eda e43d 5517 213e f890 f4b8
000001e0: e61d 9fbc 2ad2 4abc e79a 3a3e 6aa7 a03d
000001f0: 3360 1bbe 6a62 da3d c9f2 81be 0ea9 6ebe
00000200: 6dff 4b3c 8223 62bc 9283 ccbc 8eea 33be
00000210: 3fe9 eebc 01fe 293e 597a 0b3e 2e5e 303c
00000220: 22f9 8abd 6e3a b33c feed 5f3e d90e 613d
00000230: c4e7 0abe cd6c 56bc e986 d03d eb83 a03c
00000240: 6c3a e8bd a9b9 5ebd 0ce8 ea3d 9450 02bd
00000250: 29a9 89bc efd8 6d3c e37f b4bd 3479 ef3c
00000260: 09ac 023d 047d e63b 8954 d7bc f127 233d
00000270: 1178 31bd 3c49 9ebc af30 873d 7652 0e3e
00000280: 91bd dbbd 7d87 763d 2acc 76bd 59c1 f7bd
00000290: 05ba 6a3d 2a02 613d 9d63 893c 540e 163d
000002a0: c6b3 f63c b075 5e3d 1305 603d 88b8 7ebe
000002b0: 453d 0fbd 948b 2a3d 369a 5fba 4e1e 0b3d
000002c0: 224e c1bc 63a9 4d3e ac7a c83d 632d 2e3e
000002d0: 1f7c 063e d6d3 373e ffcd a7bd 245b 273e
000002e0: 673f f83d 28d7 bcbd 1e41 0d3e 41db 0c3e
000002f0: 7ee3 f7bd bac7 d63d f922 e53c 0066 ccbd
00000300: 8ed3 e03d 2eb5 083e d9e5 693d 0f38 1c3d
00000310: 20ca bdbd a0b7 f23d bddb c03d a7fd 5f3c
00000320: e793 91bd f1ad b3bd beef afbd d1f8 65bd
00000330: 2aca 25be a0d9 a8bb 014d 42be 325b 85bd
00000340: 0997 48be 7b25 99bd 1faf 33be b53c 103e
00000350: a47f eebd 1b10 7dbe bf3a d6bc 9848 ecbd
00000360: 6ad7 24be 0002 933d fee3 12bd 0798 503d
00000370: 3b97 2c3e 3bc3 04be 54b7 c23d 1a51 adbd
00000380: ad02 80bd 73b5 383e b349 a93e ee05 823e
00000390: d0f3 b13e 32d2 8e3c c4dc 303e f243 513b
000003a0: 2072 c23d 271b abbd aadd 49bd e2a1 ccbd
000003b0: 830b 5cbe a21d 65be 281d 8cbe 61ef b63d
000003c0: 402f edbd 3e3c 03bd 87e3 d8bd 0973 fa3b
000003d0: 7d99 e1bd 610f 9dbd 9dd4 fcbc b747 a03d
000003e0: e356 173e a548 873d 083e 96bd ce72 6d3e
000003f0: 168d 4c3e c6c2 753e 822b 95bd a9fe 5cbd

conv1.bias f4 [6]
0.24867548 -0.017275516 0.016210774 -0.113984086 0.09773615 -0.04959838
00000000: c9a4 7e3e 6285 8dbc 75cc 843c 7d70 e9bd
00000010: e429 c83d ac27 4bbd

conv2.weight f4 [16, 6, 5, 5]
0.14998336 0.12172192 0.13477206 0.05577178 0.06842122 0.103804745 0.056990094 -0.033406816
-0.01563187 -0.050854955 0.15027305 0.106781065 0.032008488 -0.16540493 -0.031042729 0.11707905
0.027031204 0.019144932 -0.07115618 -0.1618905 0.057602964 -0.067991614 0.0044838097 -0.054244958
-0.101612024 -0.28188598 -0.24842791 -0.21084158 -0.16746685 -0.1010225 -0.13949753 -0.15158086
-0.035562765 -0.0635314 -0.0071580075 -0.046919774 -0.055603072 -0.16509946 -0.045752212 -0.10855267
-0.044358484 0.07750158 0.100537576 0.003365199 0.08993878 -0.12292567 -0.04409202 0.047859907
0.027150605 0.26912147 -0.24494433 -0.16185127 -0.10511523 -0.103430584 -0.14980772 0.007802587
-0.041107245 -0.115453415 -0.020483859 0.05739866 0.10899094 0.055911105 0.03476373 0.06563453
0.1658182 0.18661997 0.17444415 0.05963627 0.11873162 0.15556931 0.046264984 0.065858215
-0.012192591 0.14413929 0.074249595 0.18186587 0.085813716 -0.011336188 0.050588243 0.18999813
0.16666932 0.18095586 0.12467821 0.05536557 0.2406836 0.26555884 0.037301317 0.011988602
0.13127752 0.18901351 0.115901634 0.0043925946 -0.022111198 0.123472236 0.06316112 -0.013641994
0.04555332 0.010786676 0.11678481 0.1423397 0.046691604 -0.07894785 0.056715887 0.08076054
0.048638348 0.083269894 0.012590829 0.043463055 0.087688416 0.024679957 0.064803295 0.14815599
0.14863718 -0.005856063 -0.035065986 0.120317586 0.10996904 0.022702433 -0.018367492 -0.077450536
-0.03787945 -0.023736905 0.0036600502 -0.11372189 -0.02041681 -0.09417933 -0.22279002 -0.29581213
-0.21735948 -0.2005537 -0.19449605 -0.32718688 -0.35461465 -0.26556754 -0.2024597 0.06730256
-0.31939483 -0.43982992 -0.25539985 -0.1872093 0.012908012 -0.05372921 -0.17449132 -0.2788316
-0.06525996 -0.05701303 -0.12320263 -0.02701961 0.028525876 0.042265568 0.09722876 -0.067861125
-0.0930809 -0.11817797 -0.090720855 0.20215651 -0.100312635 -0.18816409 -0.2578868 -0.07887367
0.17641969 0.040936526 -0.059600893 -0.27562156 -0.14867958 0.18477142 0.18049562 -0.052877758
-0.27774784 -0.14501998 0.2536001 0.20380485 0.03415818 -0.100705676 -0.18486723 0.012887352
-0.1693004 -0.058831435 -0.13899983 0.04642849 0.05967977 -0.09216945 -0.10355434 -0.08258889
0.0032814457 0.09710492 0.050465807 -0.062026493 -0.09322483 0.05423221 -0.045982394 0.10555346
-0.097905956 -0.01631896 -0.004544493 -0.05027362 0.05120867 -0.12776907 0.06990529 0.0701519
-0.0865639 -0.01851371 0.022006743 -0.06365047 0.017525855 0.016679166 -0.040200114 -0.07851316
-0.009618051 0.03725491 0.14385456 0.0123206135 -0.104013145 -0.04562571 0.034864325 0.021145444
0.08996996 -0.13839482 -0.045685448 -0.0071659796 -0.038677942 0.07329772 -0.08839379 -0.124529675
-0.06988 -0.14012147 -0.022226727 -0.038657784 -0.07483215 0.0072486424 -0.17421772 -0.06704945
0.080748044 0.048073612 -0.05083955 0.01432308 -0.0744301 -0.01249079 0.053008042 0.010363919
0.028700614 -0.061026234 -0.09612471 -0.21454073 0.037000783 0.0037972345 -0.054516707 -0.11288272
-0.19611332 -0.13699506 0.15718168 0.035549298 -0.06426903 -0.107286386 -0.052842602 0.222865
00000000: 3d95 193e 5849 f93d b001 0a3e f370 643d
00000010: 6d20 8c3d 9597 d43d 726e 693d 96d5 08bd
00000020: 680e 80bc 494d 50bd 2ee1 193e 08b0 da3d
00000030: 551b 033d e95f 29be 524d febc 24c7 ef3d
00000040: 8b70 dd3c d5d5 9c3c 55ba 91bd a0c6 25be
00000050: 16f1 6b3d 303f 8bbd ecec 923b f62f 5ebd
00000060: f719 d0bd 5c53 90be e363 7ebe dbe6 57be
00000070: 6e7c 2bbe e2e4 cebd 71d8 0ebe 0338 1bbe
00000080: 43aa 11bd c01c 82bd b88d eabb f32e 40bd
00000090: 0cc0 63bd d50f 29be ac66 3bbd dd50 debd
000000a0: 3eb1 35bd 26b9 9e3d a5e6 cd3d ac8a 5c3b
000000b0: d331 b83d 74c0 fbbd d599 34bd c008 443d
000000c0: f26a de3c 4aca 893e b0d2 7abe 57bc 25be
000000d0: a746 d7bd 6ad3 d3bd 3267 19be d8ac ff3b
000000e0: 1260 28bd d772 ecbd c4cd a7bc db1a 6b3d
000000f0: a436 df3d 0b03 653d 6a64 0e3d 656b 863d
00000100: 3fcc 293e 4e19 3f3e 7da1 323e 2945 743d
00000110: 9029 f33d 904d 1f3e 5a80 3d3d ace0 863d
00000120: 6fc3 47bc 4099 133e 2c10 983d 0c3b 3a3e
00000130: 1abf af3d 6bbb 39bc 9e35 4f3d df8e 423e
00000140: 5dab 2a3e 7e4c 393e 4a57 ff3d 02c7 623d
00000150: c375 763e 54f7 873e 44c9 183d d76b 443c
00000160: 9d6d 063e c28c 413e d65d ed3d c1ef 8f3b
00000170: 8b22 b5bc 03df fc3d 9e5a 813d ac82 5fbc
00000180: 1e96 3a3d 99ba 303c e02c ef3d 80c1 113e
00000190: b23f 3f3d 69af a1bd eb4e 683d c865 a53d
000001a0: 0139 473d 6889 aa3d c449 4e3c 5106 323d
000001b0: fc95 b33d 9f2d ca3c 97b7 843d 34b6 173e
000001c0: 5834 183e 38e4 bfbb 5aa1 0fbd 1169 f63d
000001d0: 7337 e13d 74fa b93c 6c77 96bc 639e 9ebd
000001e0: 7b27 1bbd e673 c2bc 74dd 6f3b 06e7 e8bd
000001f0: 2741 a7bc 18e1 c0bd 1123 64be b074 97be
00000200: 7c93 5ebe f35d 4dbe f929 47be 0a85 a7be
00000210: 0d90 b5be 78f8 87be 9851 4fbe edd5 893d
00000220: b887 a3be 6331 e1be c5c3 82be cbb3 3fbe
00000230: 207c 533c 2913 5cbd daad 32be 04c3 8ebe
00000240: 04a7 85bd 7f86 69bd a951 fcbd 3b58 ddbc
00000250: 19af e93c a91e 2d3d df1f c73d c6fa 8abd
00000260: 33a1 bebd 4b07 f2bd dbcb b9bd 1e02 4f3e
00000270: b670 cdbd 16ae 40be bd09 84be 8588 a1bd
00000280: 5da7 343e 0fad 273d 1120 74bd 451e 8dbe
00000290: 763f 18be b834 3d3e d8d3 383e 5996 58bd
000002a0: f734 8ebe 1e80 14be dfd7 813e 38b2 503e
000002b0: 73e9 0b3d c73e cebd d64d 3dbe 7925 533c
000002c0: 165d 2dbe 3bf9 70bd f955 0ebe cd2b 3e3d
000002d0: c672 743d 56c3 bcbd 4c14 d4bd 5d24 a9bd
000002e0: 860d 573b f2de c63d 3cb5 4e3d 7e0f 7ebd
000002f0: a9ec bebd 9822 5e3d 0958 3cbd 6a2c d83d
00000300: eb82 c8bd 57af 85bc f8e9 94bb b6eb 4dbd
00000310: 2fc0 513d e5d5 02be 812a 8f3d cdab 8f3d
00000320: 6a48 b1bd 10aa 97bc 7c47 b43c 2d5b 82bd
00000330: 6292 8f3c bfa2 883c e0a8 24bd 82cb a0bd
00000340: 0895 1dbc 9b98 183d 9c4e 133e 66dc 493c
00000350: d804 d5bd 06e2 3abd e5cd 0e3d 3639 ad3c
00000360: 2c42 b83d 5fb7 0dbe aa20 3bbd 98d0 eabb
00000370: c36c 1ebd 1d1d 963d ce07 b5bd 6a09 ffbd
00000380: 3f1d 8fbd 017c 0fbe d314 b6bc a057 1ebd
00000390: 9941 99bd 0586 ed3b 2166 32be 3951 89bd
000003a0: 3b5f a53d d6e8 443d 223d 50bd 5aab 6a3c
000003b0: cf6e 98bd 2ca6 4cbc f61e 593d 6dcd 293c
000003c0: 8d1d eb3c a5f6 79bd 08dd c4bd 91b0 5bbe
000003d0: 228e 173d 06db 783b e94c 5fbd 0e2f e7bd
000003e0: eed1 48be 6f48 0cbe 3cf4 203e 249c 113d
000003f0: 7b9f 83bd f7b8 dbbd 7c71 58bd b936 643e

conv2.bias f4 [16]
0.11620033 0.21128063 -0.16477881 0.13436128 -0.068743214 0.35082442 0.329618 0.37437356
0.123869546 -0.10044899 -0.15230997 -0.019989045 -0.106539175 -0.31568587 0.21028692 -0.42362294
00000000: 70fa ed3d f359 583e c7bb 28be 0196 093e
00000010: 3ec9 8cbd 429f b33e b1c3 a83e e4ad bf3e
00000020: 51af fd3d 33b8 cdbd 25f7 1bbe 11c0 a3bc
00000030: 3631 dabd 94a1 a1be 7455 573e 1be5 d8be

convs.0.weight f4 [6, 3, 5, 5]
0.009569873 -0.09994104 -0.11197997 -0.13857993 0.06319331 -0.05237259 -0.07121609 -0.069988966
0.023398617 -0.08672689 -0.05755634 -0.08491409 -0.1592366 -0.17325038 -0.0966325 -0.1273019
-0.029700132 -0.11699584 -0.056652617 -0.11904224 -0.24765642 -0.2733785 -0.21397057 -0.059235774
-0.11700821 -0.031246131 -0.010843745 -0.012537907 0.099567816 0.1290133 -0.085573 0.14449938
0.005232339 0.062007334 0.033386353 0.031706944 -0.053089462 0.07253757 -0.017788814 0.11754256
0.09032212 0.07767791 0.22405508 0.18497701 0.091634266 -0.17898679 -0.09548038 0.10998508
-0.009681875 0.11044577 -0.03356972 -0.0064524706 0.09150726 0.07024555 0.06835737 0.08196359
-0.010406041 0.0781281 0.0012901196 -0.039810706 0.023482915 0.015351168 -0.0045793876 -0.00029498938
-0.06676154 0.21087664 0.24555157 0.1374013 0.24790128 0.1621124 -0.027742181 0.06287274
0.055899095 0.146389 0.005852068 0.14651151 -0.23172444 -0.08003883 -0.096024595 -0.009388375
-0.21370791 -0.4133498 -0.112720214 0.17296402 0.08733217 -0.16861735 -0.06497073 0.12982562
0.17767443 0.060921982 -0.043893445 -0.011723536 0.13471669 0.06636943 -0.0676922 -0.006827242
0.08034936 0.12969786 -0.0055008894 0.061174 0.119191006 -0.23248844 -0.26167768 0.045467135
0.06919087 -0.1802879 -0.304777 0.051347833 0.31913468 0.19884236 -0.02071812 -0.031270273
0.0673577 0.39529815 -0.020959789 -0.024436893 -0.10717241 0.111745104 0.15731557 -0.00011661829
-0.019423436 -0.012379209 0.18223153 0.07844432 -0.15173416 0.10663302 -0.25380543 -0.23306677
0.012451035 -0.013802411 -0.024965081 -0.17569944 -0.029163955 0.16600801 0.1362089 0.010764642
-0.067857996 0.021878447 0.2186813 0.0549458 -0.13564974 -0.013087464 0.10181982 0.019594153
-0.11339268 -0.054376278 0.11470041 -0.031815127 -0.016804295 0.014517053 -0.08813455 0.029232599
0.031902347 0.007033946 -0.026285427 0.039833013 -0.043327395 -0.01932203 0.066010825 0.13898644
-0.10729516 0.060187805 -0.0602533 -0.12097425 0.05730631 0.054933704 0.016771132 0.036634758
0.03011502 0.054311454 0.05469234 -0.2487508 -0.03497054 0.04163702 -0.0008529754 0.033964448
-0.023596827 0.20084147 0.09789023 0.17009501 0.13133286 0.17951903 -0.081935875 0.16343361
0.12121468 -0.09220725 0.13794371 0.13755514 -0.121039376 0.104873136 0.027970778 -0.099803925
0.10977851 0.13350365 0.057103965 0.0381394 -0.09267068 0.1185143 0.09416912 0.013671315
-0.07108288 -0.08773411 -0.08590649 -0.056145493 -0.161904 -0.005152896 -0.18974687 -0.06511535
-0.19588865 -0.07477852 -0.17547272 0.14085658 -0.11645439 -0.24713175 -0.02615106 -0.11537284
-0.16097799 0.07178116 -0.03586196 0.050926235 0.16854565 -0.129651 0.09507623 -0.084627345
-0.0625051 0.18037967 0.3306404 0.2539515 0.34756327 0.017434213 0.17271715 0.0031931368
0.09494424 -0.08354788 -0.04928366 -0.09991814 -0.21488766 -0.22374585 -0.27365994 0.08932377
-0.11581278 -0.032039873 -0.105902724 0.007643108 -0.11015604 -0.07668949 -0.0308631 0.078261785
0.14779238 0.06605653 -0.0733605 0.23188326 0.19975695 0.24000081 -0.07283689 -0.0539538
00000000: f5ca 1c3c e3ad ccbd c155 e5bd e6e7 0dbe
00000010: 7e6b 813d a484 56bd bed9 91bd 6056 8fbd
00000020: 75ae bf3c de9d b1bd 32c0 6bbd 70e7 adbd
00000030: eb0e 23be 8c68 31be 43e7 c5bd 6e5b 02be
00000040: b14d f3bc 849b efbd 930c 68bd 6bcc f3bd
00000050: a599 7dbe 44f8 8bbe 1a1b 5bbe 36a1 72bd
00000060: 00a2 efbd e3f7 ffbc f7a9 31bc cb6b 4dbc
00000070: 36ea cb3d 101c 043e e640 afbd a5f7 133e
00000080: 0a74 ab3b 67fb 7d3d 21c0 083d 24df 013d
00000090: 5674 59bd 948e 943d d9b9 91bc 27ba f03d
000000a0: cefa b83d 9915 9f3d b26e 653e 9d6a 3d3e
000000b0: bfaa bb3d 5048 37be 388b c3bd dc3f e13d
000000c0: baa0 1ebc 6431 e23d 6780 09bd 3f6f d3bb
000000d0: 2968 bb3d e6dc 8f3d f3fe 8b3d 87dc a73d
000000e0: 197e 2abc a001 a03d 3b19 a93a 8d10 23bd
000000f0: 3e5f c03c 7783 7b3c b00e 96bb cea8 9ab9
00000100: 46ba 88bd 0cf0 573e df71 7b3e edb2 0c3e
00000110: d5d9 7d3e cb00 263e 9243 e3bc 6cc3 803d
00000120: 73f6 643d ffe6 153e b4c2 bf3b 1d07 163e
00000130: 2c49 6dbe 66eb a3bd 8ba8 c4bd b3d1 19bc
00000140: 3fd6 5abe 96a2 d3be dbd9 e6bd 7b1d 313e
00000150: 35db b23d 07aa 2cbe 600f 85bd 02f1 043e
00000160: 49f0 353e 5489 793d 9dc9 33bd 1314 40bc
00000170: 2cf3 093e b2ec 873d 35a2 8abd 0fb7 dfbb
00000180: 358e a43d 84cf 043e ce40 b4bb 9791 7a3d
00000190: 6a1a f43d 7311 6ebe 9efa 85be bf3b 3a3d
000001a0: f1b3 8d3d 649d 38be bb0b 9cbe 1b52 523d
000001b0: 9f65 a33e 559d 4b3e 0cb9 a9bc 4215 00bd
000001c0: d5f2 893d 8564 ca3e ddb3 abbc e12f c8bc
000001d0: 357d dbbd 9eda e43d 5517 213e f890 f4b8
000001e0: e61d 9fbc 2ad2 4abc e79a 3a3e 6aa7 a03d
000001f0: 3360 1bbe 6a62 da3d c9f2 81be 0ea9 6ebe
00000200: 6dff 4b3c 8223 62bc 9283 ccbc 8eea 33be
00000210: 3fe9 eebc 01fe 293e 597a 0b3e 2e5e 303c
00000220: 22f9 8abd 6e3a b33c feed 5f3e d90e 613d
00000230: c4e7 0abe cd6c 56bc e986 d03d eb83 a03c
00000240: 6c3a e8bd a9b9 5ebd 0ce8 ea3d 9450 02bd
00000250: 29a9 89bc efd8 6d3c e37f b4bd 3479 ef3c
00000260: 09ac 023d 047d e63b 8954 d7bc f127 233d
00000270: 1178 31bd 3c49 9ebc af30 873d 7652 0e3e
00000280: 91bd dbbd 7d87 763d 2acc 76bd 59c1 f7bd
00000290: 05ba 6a3d 2a02 613d 9d63 893c 540e 163d
000002a0: c6b3 f63c b075 5e3d 1305 603d 88b8 7ebe
000002b0: 453d 0fbd 948b 2a3d 369a 5fba 4e1e 0b3d
000002c0: 224e c1bc 63a9 4d3e ac7a c83d 632d 2e3e
000002d0: 1f7c 063e d6d3 373e ffcd a7bd 245b 273e
000002e0: 673f f83d 28d7 bcbd 1e41 0d3e 41db 0c3e
000002f0: 7ee3 f7bd bac7 d63d f922 e53c 0066 ccbd
00000300: 8ed3 e03d 2eb5 083e d9e5 693d 0f38 1c3d
00000310: 20ca bdbd a0b7 f23d bddb c03d a7fd 5f3c
00000320: e793 91bd f1ad b3bd beef afbd d1f8 65bd
00000330: 2aca 25be a0d9 a8bb 014d 42be 325b 85bd
00000340: 0997 48be 7b25 99bd 1faf 33be b53c 103e
00000350: a47f eebd 1b10 7dbe bf3a d6bc 9848 ecbd
00000360: 6ad7 24be 0002 933d fee3 12bd 0798 503d
00000370: 3b97 2c3e 3bc3 04be 54b7 c23d 1a51 adbd
00000380: ad02 80bd 73b5 383e b349 a93e ee05 823e
00000390: d0f3 b13e 32d2 8e3c c4dc 303e f243 513b
000003a0: 2072 c23d 271b abbd aadd 49bd e2a1 ccbd
000003b0: 830b 5cbe a21d 65be 281d 8cbe 61ef b63d
000003c0: 402f edbd 3e3c 03bd 87e3 d8bd 0973 fa3b
000003d0: 7d99 e1bd 610f 9dbd 9dd4 fcbc b747 a03d
000003e0: e356 173e a548 873d 083e 96bd ce72 6d3e
000003f0: 168d 4c3e c6c2 753e 822b 95bd a9fe 5cbd

convs.0.bias f4 [6]
0.24867548 -0.017275516 0.016210774 -0.113984086 0.09773615 -0.04959838
00000000: c9a4 7e3e 6285 8dbc 75cc 843c 7d70 e9bd
00000010: e429 c83d ac27 4bbd

convs.3.weight f4 [16, 6, 5, 5]
0.14998336 0.12172192 0.13477206 0.05577178 0.06842122 0.103804745 0.056990094 -0.033406816
-0.01563187 -0.050854955 0.15027305 0.106781065 0.032008488 -0.16540493 -0.031042729 0.11707905
0.027031204 0.019144932 -0.07115618 -0.1618905 0.057602964 -0.067991614 0.0044838097 -0.054244958
-0.101612024 -0.28188598 -0.24842791 -0.21084158 -0.16746685 -0.1010225 -0.13949753 -0.15158086
-0.035562765 -0.0635314 -0.0071580075 -0.046919774 -0.055603072 -0.16509946 -0.045752212 -0.10855267
-0.044358484 0.07750158 0.100537576 0.003365199 0.08993878 -0.12292567 -0.04409202 0.047859907
0.027150605 0.26912147 -0.24494433 -0.16185127 -0.10511523 -0.103430584 -0.14980772 0.007802587
-0.041107245 -0.115453415 -0.020483859 0.05739866 0.10899094 0.055911105 0.03476373 0.06563453
0.1658182 0.18661997 0.17444415 0.05963627 0.11873162 0.15556931 0.046264984 0.065858215
-0.012192591 0.14413929 0.074249595 0.18186587 0.085813716 -0.011336188 0.050588243 0.18999813
0.16666932 0.18095586 0.12467821 0.05536557 0.2406836 0.26555884 0.037301317 0.011988602
0.13127752 0.18901351 0.115901634 0.0043925946 -0.022111198 0.123472236 0.06316112 -0.013641994
0.04555332 0.010786676 0.11678481 0.1423397 0.046691604 -0.07894785 0.056715887 0.08076054
0.048638348 0.083269894 0.012590829 0.043463055 0.087688416 0.024679957 0.064803295 0.14815599
0.14863718 -0.005856063 -0.035065986 0.120317586 0.10996904 0.022702433 -0.018367492 -0.077450536
-0.03787945 -0.023736905 0.0036600502 -0.11372189 -0.02041681 -0.09417933 -0.22279002 -0.29581213
-0.21735948 -0.2005537 -0.19449605 -0.32718688 -0.35461465 -0.26556754 -0.2024597 0.06730256
-0.31939483 -0.43982992 -0.25539985 -0.1872093 0.012908012 -0.05372921 -0.17449132 -0.2788316
-0.06525996 -0.05701303 -0.12320263 -0.02701961 0.028525876 0.042265568 0.09722876 -0.067861125
-0.0930809 -0.11817797 -0.090720855 0.20215651 -0.100312635 -0.18816409 -0.2578868 -0.07887367
0.17641969 0.040936526 -0.059600893 -0.27562156 -0.14867958 0.18477142 0.18049562 -0.052877758
-0.27774784 -0.14501998 0.2536001 0.20380485 0.03415818 -0.100705676 -0.18486723 0.012887352
-0.1693004 -0.058831435 -0.13899983 0.04642849 0.05967977 -0.09216945 -0.10355434 -0.08258889
0.0032814457 0.09710492 0.050465807 -0.062026493 -0.09322483 0.05423221 -0.045982394 0.10555346
-0.097905956 -0.01631896 -0.004544493 -0.05027362 0.05120867 -0.12776907 0.06990529 0.0701519
-0.0865639 -0.01851371 0.022006743 -0.06365047 0.017525855 0.016679166 -0.040200114 -0.07851316
-0.009618051 0.03725491 0.14385456 0.0123206135 -0.104013145 -0.04562571 0.034864325 0.021145444
0.08996996 -0.13839482 -0.045685448 -0.0071659796 -0.038677942 0.07329772 -0.08839379 -0.124529675
-0.06988 -0.14012147 -0.022226727 -0.038657784 -0.07483215 0.0072486424 -0.17421772 -0.06704945
0.080748044 0.048073612 -0.05083955 0.01432308 -0.0744301 -0.01249079 0.053008042 0.010363919
0.028700614 -0.061026234 -0.09612471 -0.21454073 0.037000783 0.0037972345 -0.054516707 -0.11288272
-0.19611332 -0.13699506 0.15718168 0.035549298 -0.06426903 -0.107286386 -0.052842602 0.222865
00000000: 3d95 193e 5849 f93d b001 0a3e f370 643d
00000010: 6d20 8c3d 9597 d43d 726e 693d 96d5 08bd
00000020: 680e 80bc 494d 50bd 2ee1 193e 08b0 da3d
00000030: 551b 033d e95f 29be 524d febc 24c7 ef3d
00000040: 8b70 dd3c d5d5 9c3c 55ba 91bd a0c6 25be
00000050: 16f1 6b3d 303f 8bbd ecec 923b f62f 5ebd
00000060: f719 d0bd 5c53 90be e363 7ebe dbe6 57be
00000070: 6e7c 2bbe e2e4 cebd 71d8 0ebe 0338 1bbe
00000080: 43aa 11bd c01c 82bd b88d eabb f32e 40bd
00000090: 0cc0 63bd d50f 29be ac66 3bbd dd50 debd
000000a0: 3eb1 35bd 26b9 9e3d a5e6 cd3d ac8a 5c3b
000000b0: d331 b83d 74c0 fbbd d599 34bd c008 443d
000000c0: f26a de3c 4aca 893e b0d2 7abe 57bc 25be
000000d0: a746 d7bd 6ad3 d3bd 3267 19be d8ac ff3b
000000e0: 1260 28bd d772 ecbd c4cd a7bc db1a 6b3d
000000f0: a436 df3d 0b03 653d 6a64 0e3d 656b 863d
00000100: 3fcc 293e 4e19 3f3e 7da1 323e 2945 743d
00000110: 9029 f33d 904d 1f3e 5a80 3d3d ace0 863d
00000120: 6fc3 47bc 4099 133e 2c10 983d 0c3b 3a3e
00000130: 1abf af3d 6bbb 39bc 9e35 4f3d df8e 423e
00000140: 5dab 2a3e 7e4c 393e 4a57 ff3d 02c7 623d
00000150: c375 763e 54f7 873e 44c9 183d d76b 443c
00000160: 9d6d 063e c28c 413e d65d ed3d c1ef 8f3b
00000170: 8b22 b5bc 03df fc3d 9e5a 813d ac82 5fbc
00000180: 1e96 3a3d 99ba 303c e02c ef3d 80c1 113e
00000190: b23f 3f3d 69af a1bd eb4e 683d c865 a53d
000001a0: 0139 473d 6889 aa3d c449 4e3c 5106 323d
000001b0: fc95 b33d 9f2d ca3c 97b7 843d 34b6 173e
000001c0: 5834 183e 38e4 bfbb 5aa1 0fbd 1169 f63d
000001d0: 7337 e13d 74fa b93c 6c77 96bc 639e 9ebd
000001e0: 7b27 1bbd e673 c2bc 74dd 6f3b 06e7 e8bd
000001f0: 2741 a7bc 18e1 c0bd 1123 64be b074 97be
00000200: 7c93 5ebe f35d 4dbe f929 47be 0a85 a7be
00000210: 0d90 b5be 78f8 87be 9851 4fbe edd5 893d
00000220: b887 a3be 6331 e1be c5c3 82be cbb3 3fbe
00000230: 207c 533c 2913 5cbd daad 32be 04c3 8ebe
00000240: 04a7 85bd 7f86 69bd a951 fcbd 3b58 ddbc
00000250: 19af e93c a91e 2d3d df1f c73d c6fa 8abd
00000260: 33a1 bebd 4b07 f2bd dbcb b9bd 1e02 4f3e
00000270: b670 cdbd 16ae 40be bd09 84be 8588 a1bd
00000280: 5da7 343e 0fad 273d 1120 74bd 451e 8dbe
00000290: 763f 18be b834 3d3e d8d3 383e 5996 58bd
000002a0: f734 8ebe 1e80 14be dfd7 813e 38b2 503e
000002b0: 73e9 0b3d c73e cebd d64d 3dbe 7925 533c
000002c0: 165d 2dbe 3bf9 70bd f955 0ebe cd2b 3e3d
000002d0: c672 743d 56c3 bcbd 4c14 d4bd 5d24 a9bd
000002e0: 860d 573b f2de c63d 3cb5 4e3d 7e0f 7ebd
000002f0: a9ec bebd 9822 5e3d 0958 3cbd 6a2c d83d
00000300: eb82 c8bd 57af 85bc f8e9 94bb b6eb 4dbd
00000310: 2fc0 513d e5d5 02be 812a 8f3d cdab 8f3d
00000320: 6a48 b1bd 10aa 97bc 7c47 b43c 2d5b 82bd
00000330: 6292 8f3c bfa2 883c e0a8 24bd 82cb a0bd
00000340: 0895 1dbc 9b98 183d 9c4e 133e 66dc 493c
00000350: d804 d5bd 06e2 3abd e5cd 0e3d 3639 ad3c
00000360: 2c42 b83d 5fb7 0dbe aa20 3bbd 98d0 eabb
00000370: c36c 1ebd 1d1d 963d ce07 b5bd 6a09 ffbd
00000380: 3f1d 8fbd 017c 0fbe d314 b6bc a057 1ebd
00000390: 9941 99bd 0586 ed3b 2166 32be 3951 89bd
000003a0: 3b5f a53d d6e8 443d 223d 50bd 5aab 6a3c
000003b0: cf6e 98bd 2ca6 4cbc f61e 593d 6dcd 293c
000003c0: 8d1d eb3c a5f6 79bd 08dd c4bd 91b0 5bbe
000003d0: 228e 173d 06db 783b e94c 5fbd 0e2f e7bd
000003e0: eed1 48be 6f48 0cbe 3cf4 203e 249c 113d
000003f0: 7b9f 83bd f7b8 dbbd 7c71 58bd b936 643e

convs.3.bias f4 [16]
0.11620033 0.21128063 -0.16477881 0.13436128 -0.068743214 0.35082442 0.329618 0.37437356
0.123869546 -0.10044899 -0.15230997 -0.019989045 -0.106539175 -0.31568587 0.21028692 -0.42362294
00000000: 70fa ed3d f359 583e c7bb 28be 0196 093e
00000010: 3ec9 8cbd 429f b33e b1c3 a83e e4ad bf3e
00000020: 51af fd3d 33b8 cdbd 25f7 1bbe 11c0 a3bc
00000030: 3631 dabd 94a1 a1be 7455 573e 1be5 d8be

fc_1.weight f4 [120, 400]
0.10144187 -0.032935534 -0.14658731 -0.2199755 -0.1927909 0.013413571 0.025651336 0.048532434
0.036688007 -0.09322157 -0.053999104 -0.06762733 0.00024872515 -0.15084203 -0.107140295 0.06171283
0.20585427 7.7607045e-05 -0.13763954 -0.3373459 0.02840824 0.091415584 -0.011930077 -0.01430406
-0.13404164 -0.13999127 -0.07264633 -0.000994715 -0.0004450379 0.021579351 0.09128044 -0.0017891901
0.07714642 -0.013371569 -0.09604573 0.21593186 -0.028788561 0.047672015 -0.01121441 0.05239411
-0.028362 0.019099409 0.016773302 0.15322119 0.20519243 0.032659434 0.15598747 0.013592363
0.118580855 0.16427028 0.015920732 0.04588744 0.23555489 0.12150233 -0.12425093 0.0033601148
0.1787405 0.15241915 0.17269017 -0.066673055 0.002873655 -0.03306035 0.06470159 0.07929447
0.014324944 -0.037946865 -0.15205646 -0.11903417 -0.022370294 -0.006649544 -0.12767148 -0.14533822
-0.13160892 0.053033788 0.07531199 0.032705065 0.0034821264 -0.025375806 -0.1230526 -0.021489298
-0.07558316 -0.0002928406 0.042188823 -0.0005373244 -0.15173231 -0.15075463 0.025047082 0.040652398
0.016030075 -0.10061282 -0.12810808 -0.05495466 -0.034206044 -0.11491435 -0.08141015 -0.25397316
-0.11980654 -0.19287461 -0.021095458 -0.10514728 0.04404349 -0.056185823 -0.050202567 -0.2318546
-0.07007872 -0.0071509094 -0.20500304 -0.27343702 -0.24157323 -0.034326114 -0.20258133 -0.22680566
-0.08530666 -0.06128579 -0.031881016 -0.051961746 0.08861689 -0.02313179 -0.0050783753 -0.013633652
-0.14223641 0.057493266 0.087970115 0.08332019 0.077760115 -0.025044482 0.0011229217 0.12098495
0.04517523 0.22873722 0.0025385 0.133397 0.022177242 -0.11409859 -0.100021124 0.013048636
-0.15043269 -0.15329054 -0.20186602 -0.15582895 -0.17746004 -0.054965112 -0.121066056 -0.31390148
-0.29173294 -0.29228085 -0.24772811 -0.19206111 -0.2843194 -0.48052558 -0.09063012 0.049696494
0.029535152 -0.0923863 0.012014454 -0.12211516 -0.06186046 0.1683783 -0.049311634 0.07990713
-0.08454763 0.0031770365 -0.09482417 -0.03919634 0.08267206 -0.017820453 -0.072341256 0.0017151727
0.0027483038 0.16955513 0.13103479 0.18145576 0.17580402 0.0010244832 0.07282938 -0.110326014
0.028886044 0.0013049333 0.048268925 0.09166057 -0.036771383 -0.07137306 0.102483414 -0.09206779
0.05739763 -0.10312866 -0.044798605 -0.07679923 0.060453936 0.060788013 -0.24264894 -0.12676765
-0.1334644 0.093301676 -0.038951907 -0.27052474 -0.14924376 -0.12372536 -0.28810325 -0.24218298
0.15722688 -0.03650307 0.0014945724 -0.018210918 -0.096000955 0.17113847 0.015912702 -0.064277396
-0.10196745 0.03630191 0.14251283 0.04161377 0.07994182 -0.03789723 -0.011285284 0.039584063
-0.041526057 0.006749118 -0.09257817 0.018211732 -0.029821176 0.07611963 0.094761245 0.15181579
0.037814874 0.18029453 -0.034603555 0.0025623878 0.03044307 0.4060884 -0.00027717336 -0.09846408
-0.058541454 -0.025215825 0.09370398 -0.023374407 -0.108378194 -0.021361727 -0.02944923 0.09704047
-0.22118805 -0.12013136 -0.14394598 -0.19094379 0.03583723 0.07386881 -0.03857395 -0.023777511
0.053129405 -0.04343164 0.13674127 -0.010205483 -0.075688295 -0.02360013 0.063153826 -0.020730793
00000000: c1c0 cf3d 69e7 06bd fc1a 16be 4241 61be
00000010: fa6a 45be 98c4 5b3c c022 d23c f2c9 463d
00000020: 2a46 163d f3ea bebd 2a2e 5dbd 3380 8abd
00000030: 5367 8239 5576 1abe 5f6c dbbd 98c6 7c3d
00000040: 76cb 523e f7c0 a238 61f1 0cbe 9ab8 acbe
00000050: 66b8 e83c 1838 bb3d 5f76 43bc 935b 6abc
00000060: 3642 09be df59 0fbe 99c7 94bd 1961 82ba
00000070: fa53 e9b9 2ec7 b03c 3df1 ba3d 4283 eaba
00000080: f1fe 9d3d 6d14 5bbc a0b3 c4bd 3e1d 5d3e
00000090: fdd5 ebbc bb43 433d a5bc 37bc 359b 563d
000000a0: 6d57 e8bc 5d76 9c3c 2a68 893c 04e6 1c3e
000000b0: f71d 523e e6c5 053d 2ebb 1f3e 81b2 5e3c
000000c0: 85da f23d 7836 283e 326c 823c 78f4 3b3d
000000d0: 4d35 713e 37d6 f83d 4677 febd 5f35 5c3b
000000e0: c007 373e c413 1c3e b1d5 303e e28b 88bd
000000f0: ee53 3c3b 4a6a 07bd 4482 843d 2465 a23d
00000100: 2bb3 6a3c 2c6e 1bbd b0b4 1bbe 30c8 f3bd
00000110: e841 b7bc 6be4 d9bb 50bc 02be 8bd3 14be
00000120: 7dc4 06be f539 593d 2c3d 9a3d bff5 053d
00000130: 6334 643b ece0 cfbc 0003 fcbd 530a b0bc
00000140: 58cb 9abd 6688 99b9 30ce 2c3d 3bdb 0cba
00000150: b75f 1bbe 6c5f 1abe 8a2f cd3c 2183 263d
00000160: 8151 833c 180e cebd c42e 03be 2318 61bd
00000170: a31b 0cbd 3758 ebbd 5dba a6bd c508 82be
00000180: 225d f5bd ec80 45be 62d0 acbc 7557 d7bd
00000190: f266 343d 1b23 66bd 35a1 4dbd 4b6b 6dbe
000001a0: 6f85 8fbd 2d52 eabb 51ec 51be f0ff 8bbe
000001b0: f95e 77be 8a99 0cbd 7b71 4fbe be3f 68be
000001c0: 42b5 aebd cf06 7bbd ab95 02bd d7d5 54bd
000001d0: c67c b53d e17e bdbc 8068 a6bb ae5f 5fbc
000001e0: 6ca6 11be 0f7e 6b3d ad29 b43d c7a3 aa3d
000001f0: b240 9f3d 162a cdbc 002f 933a f5c6 f73d
00000200: a909 393d 173a 6a3e f65c 263b 3999 083e
00000210: 0cad b53c 86ac e9bd e0d7 ccbd f2c9 553c
00000220: 070b 1abe 32f8 1cbe f7b5 4ebe a091 1fbe
00000230: 16b8 35be 1923 61bd 7bf1 f7bd b2b7 a0be
00000240: 055e 95be d6a5 95be 70ac 7dbe abab 44be
00000250: 5092 91be 7307 f6be 499c b9bd 8d8e 4b3d
00000260: b4f3 f13c 0735 bdbd 46d8 443c 8317 fabd
00000270: 6561 7dbd 5c6b 2c3e fffa 49bd 59a6 a33d
00000280: 4f27 adbd d435 503b 2d33 c2bd 578c 20bd
00000290: f84f a93d 33fc 91bc a727 94bd a5cf e03a
000002a0: e31c 343b dc9f 2d3e fc2d 063e 8acf 393e
000002b0: f805 343e f447 863a 9227 953d 9bf2 e1bd
000002c0: 6da2 ec3c 4c0a ab3a a3b5 453d 89b8 bb3d
000002d0: 979d 16bd 0a2c 92bd d3e2 d13d 0a8e bcbd
000002e0: c719 6b3d 1e35 d3bd be7e 37bd ea48 9dbd
000002f0: 8c9e 773d dafc 783d f778 78be 61cf 01be
00000300: e4aa 08be f314 bf3d 098c 1fbd 3882 8abe
00000310: 5bd3 18be b963 fdbd 4582 93be d1fe 77be
00000320: 1500 213e 3e84 15bd 87e5 c33a 102f 95bc
00000330: 269c c4bd ec3e 2f3e 5b5b 823c dea3 83bd
00000340: 4fd4 d0bd 50b1 143d e2ee 113e 3373 2a3d
00000350: 89b8 a33d 203a 1bbd e9e5 38bc e622 223d
00000360: 3a17 2abd b527 dd3b a099 bdbd c530 953c
00000370: 8a4b f4bc 9ce4 9b3d 2f12 c23d 9975 1b3e
00000380: c5e3 1a3d 219f 383e 75bc 0dbd bced 273b
00000390: bf63 f93c d2ea cf3e 9451 91b9 89a7 c9bd
000003a0: 2ac9 6fbd 6b91 cebc dfe7 bf3d af7b bfbc
000003b0: 63f5 ddbd cafe aebc 833f f1bc 27bd c63d
000003c0: 1f7f 62be 6e07 f6bd 9366 13be c586 43be
000003d0: 0fca 123d 8848 973d b8ff 1dbd 0ec9 c2bc
000003e0: 389e 593d 60e5 31bd e705 0c3e e634 27bc
000003f0: 7702 9bbd 0f55 c1bc cb56 813d a0d3 a9bc

fc_1.bias f4 [120]
0.010104842 -0.02492996 0.028786212 -0.25633958 -0.04902453 -0.06615777 0.03398384 -0.07162995
0.11362928 -0.0018828781 0.04384188 -0.017209275 0.009416051 -0.0016314302 0.024762558 0.4198361
-0.038390316 -0.061135203 -0.041806716 -0.027676037 -0.00037664236 0.11387953 -0.046634905 0.4923027
-0.0046477895 -0.32061398 0.11486648 0.10198627 -0.149239 0.10447645 0.05637849 0.21445057
-0.048047647 0.23559664 0.37744525 0.09691785 -0.01555966 0.4053247 0.2752915 0.3364142
0.0149561195 0.15770945 0.16233404 0.278594 0.18228862 0.20764631 0.28689483 -0.38700357
-0.14484261 0.14526364 0.21581252 0.12906149 -0.01842389 -0.39416382 -0.0001432719 -0.36859417
0.13793842 0.20517352 -0.36921862 0.2517 -0.39804244 0.1670987 0.026632272 -0.072904594
-0.0335826 -0.03247244 -0.05710281 0.36720297 0.28330493 -0.059570357 0.061250556 -0.01652168
0.43087178 0.25515336 0.22042826 0.16315754 0.13620631 -0.003400937 -0.23283677 -0.18562339
-0.048739877 0.37079197 0.12227649 0.25262272 0.008414968 0.41463935 -0.08935676 -0.065300904
-0.01646718 0.14339504 -0.00097405986 -0.0016058912 -0.1925563 0.017011223 0.0008075438 0.4792397
-0.0020789872 0.030177332 0.38705993 -0.06745128 0.24133031 -0.03126013 0.525622 -0.22992513
-0.23846555 0.34074113 -0.3229591 0.022358073 0.01714646 0.02856428 -0.029159129 -0.053535502
-0.10565406 -0.047984984 -0.0057030753 -0.062299635 -0.39208692 0.08533343 0.39378637 0.41563272
00000000: c78e 253c ea39 ccbc 10d1 eb3c f13e 83be
00000010: f2cd 48bd ba7d 87bd a432 0b3d b9b2 92bd
00000020: 78b6 e83d e8ca f6ba 8b93 333d 77fa 8cbc
00000030: c845 1a3c b7d5 d5ba d9da ca3c c2f4 d63e
00000040: 2a3f 1dbd e868 7abd 853d 2bbd dbb8 e2bc
00000050: 1578 c5b9 ac39 e93d 3e04 3fbd 190f fc3e
00000060: 7c4c 98bb 8427 a4be 1e3f eb3d 2dde d03d
00000070: 1cd2 18be c0f7 d53d 22ed 663d ee98 5b3e
00000080: 9ccd 44bd 3f40 713e 8140 c13e de7c c63d
00000090: f2ed 7ebc b886 cf3e 02f3 8c3e 7b3e ac3e
000000a0: 830a 753c 967e 213e e53a 263e dfa3 8e3e
000000b0: dea9 3a3e 3ca1 543e e1e3 923e 5525 c6be
000000c0: 9f51 14be febf 143e f5fd 5c3e b228 043e
000000d0: b3ed 96bc d7cf c9be 423b 16b9 60b8 bcbe
000000e0: bb3f 0d3e 0219 523e 390a bdbe d3de 803e
000000f0: 38cc cbbe ec1b 2b3e ec2b da3c 014f 95bd
00000100: e98d 09bd d201 05bd a3e4 69bd 0702 bc3e
00000110: 580d 913e 0c00 74bd dde1 7a3d 7958 87bc
00000120: 3a9b dc3e 76a3 823e f2b7 613e c512 273e
00000130: ab79 0b3e 41e2 5ebb c36c 6ebe 0f14 3ebe
00000140: 77a3 47bd 72d8 bd3e 196c fa3d c457 813e
00000150: efde 093c 9c4b d43e ad00 b7bd 7bbc 85bd
00000160: 2ee6 86bc 26d6 123e 0d58 7fba c47c d2ba
00000170: 7b2d 45be 1f5b 8b3c 59b1 533a e85e f53e
00000180: 9e3f 08bb 7436 f73c b82c c63e e623 8abd
00000190: 4b1f 773e 9f0a 00bd 2a8f 063f 7e71 6bbe
000001a0: 5030 74be 9f75 ae3e e55a a5be 4728 b73c
000001b0: bc76 8c3c a3ff e93c 20df eebc 0b48 5bbd
000001c0: 2861 d8bd e78b 44bd dde0 babb e72d 7fbd
000001d0: 9ebf c8be 4bc3 ae3d 5e9e c93e d0cd d43e

fc_2.weight f4 [84, 120]
0.089648694 0.042153742 0.05765186 0.02805733 0.12504242 0.19955385 -0.08378899 -0.065802924
-0.19040528 -0.057898566 -0.034644302 0.064646944 0.041710798 -0.026349992 -0.023387752 -0.14968689
0.028068664 -0.044599574 -0.07575027 -0.0661593 -0.045892507 0.0037490665 -0.07913829 -0.056909155
-0.037191544 -0.008438923 -0.13360582 -0.041870657 0.1665569 0.29263297 -0.031361174 -0.25782314
-0.025093986 0.0060696993 0.05983142 0.034250326 -0.08152158 0.0143292425 -0.030482462 -0.10452538
0.10675218 0.22532038 0.09507208 0.04142893 -0.036503483 0.10171894 0.15023182 0.0949851
0.011996788 -0.060235765 0.23531352 0.014187184 0.03773577 -0.0068825902 0.15039763 0.1944994
-0.22611102 0.14212638 0.02500591 -0.16968378 0.07423271 0.098251395 0.03654308 -0.04350505
0.014898558 -0.09436413 0.015858727 0.05847474 0.056725975 -0.010438987 0.1573809 -0.043672554
0.062494326 0.074362 -0.1385717 0.06096619 -0.09711497 -0.0020529877 -0.008279867 -0.040113404
0.06903406 -0.15122865 0.048159175 0.033471003 -0.14233783 -0.02588384 0.034520026 0.03867846
-0.049173553 -0.039800037 -0.0005492977 0.033136204 0.1434906 -0.043778807 -0.09590292 0.10786869
0.004627967 0.035601247 0.037124198 -0.031649653 -0.1039029 -0.02310565 0.008619604 0.04671356
0.20270093 0.132862 0.0018685843 -0.05950384 0.067004584 -0.0024752954 -0.014247527 0.08646796
0.19739014 0.045133732 -0.09759399 0.058568705 -0.057654224 0.08433332 -0.11693846 0.076663174
-0.15158233 0.027467478 0.015061575 -0.086157955 -0.051532578 0.10350963 -0.02454271 -0.08590634
0.092414126 -0.023108529 -0.15275152 -0.0059965854 0.12866208 -0.07673896 0.038750537 0.13513152
0.0707148 0.040126618 0.037632547 -0.067782365 0.027298387 -0.106734805 0.06621947 -0.045920573
0.096308544 0.08926382 0.07038641 -0.026005745 0.06654925 0.13637468 0.04064481 -0.17282113
0.0462058 0.25151503 0.11353741 0.23690826 -0.019581659 -0.17893839 0.05025689 0.021155015
0.09570219 0.07743272 0.119822346 -0.013321516 -0.24456397 0.14865007 -0.061809894 0.022453194
0.030965123 0.07304409 -0.054225963 -0.17498225 -0.09480844 0.2599567 -0.00032696873 0.0024806387
0.052831374 0.08653736 0.10776546 0.034728125 -0.18705341 -0.050786592 0.04331089 -0.12400048
0.07430092 -0.09449424 0.06157926 -0.023316575 -0.20187266 -0.013990177 0.043828666 0.15681303
0.09609257 -0.09811536 -0.013063841 -0.04399071 0.2086416 -0.06567998 -0.038597338 0.066675864
-0.00841847 0.08864566 0.11763007 0.12574436 -0.016495954 0.032423824 -0.036834937 0.009343024
0.0051697493 0.058034115 0.06861278 -0.1591206 0.17837185 0.023427399 -0.06045053 0.009379072
-0.0467317 -0.12903427 -0.00048495395 0.016915949 0.062148035 -0.0010212433 -0.15882276 0.026809137
0.0072734593 -0.18433446 0.051843613 -0.02288427 -0.07502086 -0.043798562 0.09352607 -0.046692908
-0.038264472 -0.057528615 -0.01623268 -0.13568047 0.040747736 0.042682603 -0.013185865 0.04504238
0.0067892713 -0.030007599 -0.054785844 -0.12818328 0.07352259 0.08883108 0.005548387 0.07751791
-0.0020878413 -0.10669542 0.10090808 0.06341004 0.08666707 -0.010702827 -0.09216087 0.090005204
00000000: bc99 b73d 67a9 2c3d 5b24 6c3d 7cd8 e53c
00000010: 1f0b 003e d857 4c3e 9099 abbd afc3 86bd
00000020: 9af9 42be 0c27 6dbd 2fe7 0dbd 9e65 843d
00000030: f1d8 2a3d f0db d7bc ac97 bfbc 8547 19be
00000040: 41f0 e53c 0bae 36bd f522 9bbd 877e 87bd
00000050: c8f9 3bbd e6b2 753b 4113 a2bd 9319 69bd
00000060: 2956 18bd 6943 0abc f7cf 08be 9180 2bbd
00000070: e48d 2a3e fdd3 953e 9374 00bd 6501 84be
00000080: e791 cdbc 54e4 c63b cb11 753d 124a 0c3d
00000090: c9f4 a6bd 33c5 6a3c 5bb6 f9bc 6711 d6bd
000000a0: e3a0 da3d 63ba 663e 27b5 c23d 62b1 293d
000000b0: ad84 15bd 0552 d03d 5fd6 193e 8c87 c23d
000000c0: 2d8e 443c c7b9 76bd 07f6 703e 5d71 683c
000000d0: d390 1a3d 5a87 e1bb d601 1a3e da2a 473e
000000e0: a689 67be 9489 113e 32d9 cc3c 96c1 2dbe
000000f0: 5207 983d 0738 c93d 32ae 153d 5a32 32bd
00000100: 1519 743c fb41 c1bd 29ea 813c 3583 6f3d
00000110: 7f59 683d 4908 2bbc 7528 213e fee1 32bd
00000120: 0dfa 7f3d 1b4b 983d bde5 0dbe afb7 793d
00000130: 37e4 c6bd 6b8b 06bb 47a8 07bc f44d 24bd
00000140: bb61 8d3d afdb 1abe 8e42 453d e418 093d
00000150: 02c1 11be 590a d4bc df64 0d3d 4e6d 1e3d
00000160: 356a 49bd 5d05 23bd bffe 0fba d4b9 073d
00000170: 33ef 123e 6851 33bd c068 c4bd 42ea dc3d
00000180: 33a6 973b 9dd2 113d 8b0f 183d 11a3 01bd
00000190: 0bcb d4bd 0f48 bdbc 3d39 0d3c b856 3f3d
000001a0: d590 4f3e fa0c 083e 49eb f43a 4cba 73bd
000001b0: b339 893d 9138 22bb 766e 69bc 1d16 b13d
000001c0: a420 4a3e 26de 383d 5cdf c7bd bde5 6f3d
000001d0: d626 6cbd f3b6 ac3d 6e7d efbd 9501 9d3d
000001e0: 6638 1bbe 7a03 e13c d3c4 763c 9573 b0bd
000001f0: d313 53bd dbfc d33d cb0d c9bc aaef afbd
00000200: 9e43 bd3d 194e bdbc e56a 1cbe 017f c4bb
00000210: febf 033e 5129 9dbd e2b8 1e3d eb5f 0a3e
00000220: ecd2 903d cf5b 243d 9624 1a3d 7bd1 8abd
00000230: dea0 df3c c797 dabd 139e 873d 3617 3cbd
00000240: 6a3d c53d f3cf b63d c026 903d 000a d5bc
00000250: f94a 883d cea5 0b3e 2c7b 263d 06f8 30be
00000260: 4b42 3d3d 94c6 803e 4d86 e83d 1498 723e
00000270: b769 a0bc a03b 37be 2bda 4d3d 484d ad3c
00000280: 83ff c33d 0c95 9e3d 6b65 f53d 7d42 5abc
00000290: fa6e 7abe b937 183e 5f2c 7dbd c3ef b73c
000002a0: 92aa fd3c 2498 953d 0b1c 5ebd 8c2e 33be
000002b0: ed2a c2bd 0b19 853e 006d abb9 3692 223b
000002c0: b665 583d 803a b13d 23b4 dc3d 143f 0e3d
000002d0: ee8a 3fbe 9a05 50bd c366 313d f7f3 fdbd
000002e0: 152b 983d 3286 c1bd 893a 7c3d 6702 bfbc
000002f0: b5b7 4ebe 0e37 65bc b085 333d 9893 203e
00000300: 2ecc c43d b5f0 c8bd b809 56bc 9a2f 34bd
00000310: 25a6 553e 3a83 86bd 3e18 1ebd 5b8d 883d
00000320: 9fed 09bc db8b b53d 09e8 f03d 21c3 003e
00000330: 8622 87bc d8ce 043d 3be0 16bd 7c13 193c
00000340: 0067 a93b 2eb5 6d3d db84 8c3d 83f0 22be
00000350: 1ca7 363e d1ea bf3c fa9a 77bd aeaa 193c
00000360: bd69 3fbd 8f21 04be 6b41 feb9 5193 8a3c
00000370: f08e 7e3d 3ddb 85ba 6fa2 22be d69e db3c
00000380: 3356 ee3b 2cc2 3cbe f859 543d cb77 bbbc
00000390: 89a4 99bd 1f66 33bd 998a bf3d 1041 3fbd
000003a0: 35bb 1cbd 20a3 6bbd 66fa 84bc d2ef 0abe
000003b0: 19e7 263d f4d3 2e3d 8709 58bc 5c7e 383d
000003c0: 8978 de3b 7fd2 f5bc 1f67 60bd 7a42 03be
000003d0: 0393 963d 12ed b53d 3ecf b53b b6c1 9e3d
000003e0: 2ad4 08bb 2183 dabd e5a8 ce3d 20dd 813d
000003f0: 817e b13d e95a 2fbc d7be bcbd a654 b83d

fc_2.bias f4 [84]
-0.2359965 -0.062418953 0.61423326 0.45911935 0.30721515 -0.104035184 0.07274662 -0.116747
0.36422548 0.52418935 0.34747183 0.05745751 0.21861842 0.20342325 0.10783095 0.045865476
0.02005898 -0.19292758 -0.1287192 0.33305284 0.16314664 -0.08603552 -0.07951908 -0.099809095
-0.09948242 0.00069787866 0.2897737 0.37154138 0.29815912 0.113060996 -0.08298389 -0.2265867
-0.07426003 0.33868816 -0.024242189 0.27320713 -0.021278704 0.18731928 -0.1428161 0.014820612
-0.04899599 -0.0152704865 -0.16636753 0.097815394 0.28440088 0.15394932 -0.17334282 -0.02516983
0.42527482 -0.08834368 0.019331792 -0.07883108 -0.1137353 0.018510511 -0.04837424 0.28928757
0.4396219 -0.06541074 -0.030090956 0.059772916 0.08818056 -0.094567224 0.27619526 0.52653956
-0.16864887 -0.090934455 0.3184779 -0.00034601442 -0.026150452 0.42935905 -0.119161345 -0.1717686
-0.061273687 0.19609204 -0.0981876 0.45355606 -0.03405362 0.36919174 0.17903955 0.3062604
-0.073710375 0.24236657 0.1193968 0.3406582
00000000: 11a9 71be 04ab 7fbd 643e 1d3f b111 eb3e
00000010: 4e4b 9d3e 6610 d5bd 2efc 943d 0d19 efbd
00000020: c37b ba3e 4631 063f d4e7 b13e 9158 6b3d
00000030: 82dd 5f3e 2f4e 503e 79d6 dc3d 70dd 3b3d
00000040: bb52 a43c cf8e 45be f7ce 03be e785 aa3e
00000050: ea0f 273e 6433 b0bd e6da a2bd b668 ccbd
00000060: 70bd cbbd d8f1 363a 385d 943e ac3a be3e
00000070: 50a8 983e 868c e73d 75f3 a9bd 5806 68be
00000080: a515 98bd 8968 ad3e 8e97 c6bc cee1 8b3e
00000090: ad50 aebc a0d0 3f3e 623e 12be 27d2 723c
000000a0: 05b0 48bd 1031 7abc 405c 2abe 7053 c83d
000000b0: fe9c 913e e4a4 1d3e c880 31be f630 cebc
000000c0: 9fbd d93e 88ed b4bd b55d 9e3c 3072 a1bd
000000d0: 0eee e8bd 5ba3 973c 1124 46bd 801d 943e
000000e0: 1f16 e13e 11f6 85bd 4f81 f6bc 72d4 743d
000000f0: 0298 b43d 76ac c1bd 7769 8d3e 4ccb 063f
00000100: 4ab2 2cbe d83b babd 890f a33e 4569 b5b9
00000110: 7939 d6bc f3d4 db3e dd0a f4bd 1ce4 2fbe
00000120: 1efa 7abd 5acc 483e 9516 c9bd 8038 e83e
00000130: cf7b 0bbd b306 bd3e 2556 373e 2ace 9c3e
00000140: 77f5 96bd f12e 783e 4f86 f43d c06a ae3e

fc_3.weight f4 [10, 84]
0.028394282 0.17657228 -0.062148925 -0.29060116 0.08134682 0.06928492 0.05918205 -0.061398827
-0.21988086 -0.40899685 -0.04147201 0.13744289 -0.12709634 -0.12927973 -0.19364981 -0.07373205
-0.01139575 0.25097016 -0.062404774 -0.16359098 -0.05701544 -0.10046816 0.08598625 -0.10619219
0.059174083 -0.006728752 0.11267841 0.10832053 0.1386514 -0.31382233 -0.08380482 0.26507112
0.09488609 0.011229999 -0.23387413 -0.05954443 0.3126388 -0.11909943 0.13385096 0.1481653
0.1598955 0.0072358632 0.10712037 -0.06932914 -0.054342706 -0.2311979 0.18019174 -0.09178328
-0.065146744 -0.040696703 -0.017267302 -0.015533639 -0.03910816 -0.13043512 -0.037278526 0.13515127
0.027045658 0.11101085 -0.15924886 -0.03717698 -0.051972978 0.22395343 0.11435352 0.13833533
-0.05460295 0.38348153 -0.23563759 0.059656896 0.20009476 -0.0031534263 0.022655537 -0.09359229
-0.07185457 -0.22947384 -0.12895584 -0.23601314 -0.25251082 0.044290166 -0.15434478 -0.16150552
0.022620479 -0.010844811 -0.29881817 -0.011778391 0.1733276 0.09477674 -0.11132758 -0.10177315
-0.023956887 -0.2480281 -0.07990359 0.19185834 -0.21699448 -0.19043781 -0.32183275 0.07270497
0.02353672 -0.17512017 0.035015497 -0.11331164 0.28860253 -0.012477061 -0.0036940374 -0.16739847
-0.31834933 -0.0640158 -0.06718461 -0.08241048 0.16164947 -0.039918043 -0.063628055 -0.35653046
-0.28842184 0.077264406 -0.22491764 -0.17516248 -0.10894326 -0.42183447 0.20628293 0.117592916
0.13429914 0.029211624 -0.105526015 0.012269118 -0.037279896 0.021636507 0.11268903 -0.07606551
-0.29917872 -0.10445099 0.11485512 -0.083390266 0.057107076 -0.13277324 0.13490109 -0.029573064
-0.023839321 0.109539285 -0.09305279 -0.1439466 -0.3189006 -0.17544901 0.058853313 0.007804563
-0.0959665 0.14046673 -0.058776077 0.014200372 -0.06185511 -0.05514974 -0.2722316 0.018309418
-0.006117745 0.03772752 -0.15799892 0.17577116 0.045047376 -0.069757655 -0.21372294 -0.32678214
0.15915889 -0.09287743 -0.021221226 0.15070082 0.15981261 0.10618387 0.23886134 0.047419645
0.068942256 -0.061536435 0.010513572 -0.04133728 -0.32139522 -0.13645965 -0.17044988 -0.033976372
-0.20206383 -0.12126597 -0.0051074517 0.011181366 0.09718491 -0.21480636 0.29213935 0.12813865
-0.027161987 -0.1211815 -0.036140934 0.077694505 0.02089094 -0.005657688 0.15649705 -0.21854039
-0.113691516 -0.17762206 -0.14333054 0.15309016 0.0020305077 -0.025979754 -0.090888105 0.07825447
-0.2630528 0.06714684 -0.17821358 -0.24063833 -0.15997367 0.054451615 0.13388975 0.04578085
-0.11645151 0.10085676 -0.035724647 0.06718112 0.06557692 0.01323525 -0.16012883 0.1978863
0.0941288 0.02311846 0.10560756 -0.044319198 -0.01135643 0.046667997 -0.012611323 0.22290626
0.1398374 -0.009418468 0.037231997 -0.04777215 0.14857258 -0.20572707 -0.013354513 -0.13218656
0.009556463 0.029921688 -0.11366196 -0.085201226 -0.024071772 0.107012056 0.051576957 -0.15244661
-0.10261706 -0.18250582 -0.25886768 0.22552373 0.08596789 -0.2841991 0.085370384 -0.19671205
-0.05843967 0.034771148 -0.14562288 -0.021413693 0.018540561 -0.03685377 -0.3410966 0.13802378
00000000: 209b e83c 5dcf 343e df8f 7ebd adc9 94be
00000010: 2999 a63d 41e5 8d3d e168 723d 567d 7bbd
00000020: 7328 61be 0968 d1be 8ede 29bd d4bd 0c3e
00000030: 8b25 02be e861 04be 234c 46be d400 97bd
00000040: 3db5 3abc 297f 803e 269c 7fbd 6584 27be
00000050: 0689 69bd 40c2 cdbd 8f19 b03d 4a7b d9bd
00000060: 8660 723d dd7c dcbb f0c3 e63d 27d7 dd3d
00000070: a2fa 0d3e 52ad a0be dda1 abbd 67b7 873e
00000080: a353 c23d 08fe 373c b37c 6fbe dce4 73bd
00000090: 3112 a03e 67ea f3bd 3a10 093e a5b8 173e
000000a0: a5bb 233e d21a ed3b ed61 db3d 70fc 8dbd
000000b0: 7596 5ebd 24bf 6cbe 2f84 383e dff8 bbbd
000000c0: a86b 85bd 96b1 26bd 2874 8dbc ce80 7ebc
000000d0: e12f 20bd c990 05be 5eb1 18bd 1865 0a3e
000000e0: db8e dd3c a859 e33d 2212 23be e446 18bd
000000f0: 9ee1 54bd 0c54 653e 2e32 ea3d c7a7 0d3e
00000100: 58a7 5fbd b157 c43e fb4a 71be ca5a 743d
00000110: a4e5 4c3e b7a9 4ebb 1b98 b93c 51ad bfbd
00000120: 7d28 93bd 31fb 6abe 000d 04be 6ead 71be
00000130: 1949 81be 9b69 353d 8f0c 1ebe b461 25be
00000140: 954e b93c 6fae 31bc b2fe 98be 27fa 40bc
00000150: ca7c 313e 4f1a c23d b7ff e3bd 716e d0bd
00000160: 3c41 c4bc 14fb 7dbe 7ea4 a3bd 8376 443e
00000170: cd33 5ebe 2102 43be 43c7 a4be 58e6 943d
00000180: 14d0 c03c b452 33be 696c 0f3d ef0f e8bd
00000190: b6c3 933e 966c 4cbc aa17 72bb 816a 2bbe
000001a0: affe a2be b71a 83bd 1698 89bd d3c6 a8bd
000001b0: 7087 253e 1a81 23bd 6d4f 82bd 298b b6be
000001c0: 07ac 93be cd3c 9e3d cf50 66be cb5d 33be
000001d0: a51d dfbd b0fa d7be d53b 533e 8ed4 f03d
000001e0: b785 093e 374d ef3c 061e d8bd 6904 493c
000001f0: ceb2 18bd 0b3f b13c 82c9 e63d 3cc8 9bbd
00000200: f42d 99be 67ea d5bd 2939 eb3d 84c8 aabd
00000210: 1ce9 693d b5f5 07be 8323 0a3e 3643 f2bc
00000220: ae4a c3bc 2256 e03d 7692 bebd bd66 13be
00000230: f046 a3be e8a8 33be 2c10 713d 6bbd ff3b
00000240: 168a c4bd 83d6 0f3e 2fbf 70bd ada8 683c
00000250: c95b 7dbd b2e4 61bd f161 8bbe a2fd 953c
00000260: 5d77 c8bb 2c88 1a3d 78ca 21be 5bfd 333e
00000270: 9983 383d 1add 8ebd 30da 5abe fd4f a7be
00000280: 8cfa 223e 8636 bebd 23d8 adbc 5151 1a3e
00000290: eba5 233e ee76 d93d 1198 743e 1a3b 423d
000002a0: 9931 8d3d a10d 7cbd 1e41 2c3c 4851 29bd
000002b0: ea8d a4be 14bc 0bbe 6a8a 2ebe cf2a 0bbd
000002c0: d2e9 4ebe 4b5a f8bd 695c a7bb 0c32 373c
000002d0: e208 c73d 33f6 5bbe 4a93 953e c736 033e
000002e0: d182 debc 022e f8bd 8408 14bd 4c1e 9f3d
000002f0: 7a23 ab3c 2064 b9bb c340 203e 0dc9 5fbe
00000300: 19d7 e8bd 8fe2 35be 3ec5 12be abc3 1c3e
00000310: 4412 053b 7ed3 d4bc 8b23 babd e143 a03d
00000320: dbae 86be 4884 893d 9f7d 36be e569 76be
00000330: 23d0 23be a808 5f3d 651a 093e b384 3b3d
00000340: 217e eebd fd8d ce3d 0254 12bd 4196 893d
00000350: 314d 863d a9d8 583c d0f8 23be b5a2 4a3e
00000360: 9ac6 c03d ed62 bd3c c748 d83d 0c88 35bd
00000370: 5210 3abc f126 3f3d b99f 4ebc 8a41 643e
00000380: 8931 0f3e eb4f 1abc 9480 183d bbac 43bd
00000390: 6923 183e 1eaa 52be e3cc 5abc ea5b 07be
000003a0: b692 1c3c 541e f53c 9ac7 e8bd fb7d aebd
000003b0: 2a32 c5bc 2329 db3d 5c42 533d f71a 1cbe
000003c0: e528 d2bd cee2 3abe 4e8a 84be b1ef 663e
000003d0: ef0f b03d 8b82 91be abd6 ae3d e26e 49be
000003e0: 6f5e 6fbd 316c 0e3d 2a1e 15be c56b afbc
000003f0: 60e2 973c fbf3 16bd 37a4 aebe 1b56 0d3e

fc_3.bias f4 [10]
-0.15161426 -0.20424914 -0.00058160076 0.13490269 0.34042883 -0.16900963 0.1457959 -0.06618139
0.13436474 -0.14598775
00000000: c540 1bbe b026 51be 9176 18ba ee23 0a3e
00000010: b04c ae3e dc10 2dbe 854b 153e 1c8a 87bd
00000020: e996 093e d07d 15be
