weights/LENET_MNIST.pt (torch, 181296 bytes, 10 tensors)

conv1.weight f4 [6, 1, 5, 5]
-0.12599781 -0.00391714 -0.17399639 -0.026425468 -0.08182872 -0.0025934137 -0.20236 -0.052592926
-0.32326388 -0.26199454 -0.0440742 0.078254126 0.08152955 -0.12482071 -0.2577485 0.1397212
0.20266661 0.19961405 0.37840587 0.15928555 0.15140383 -0.04597844 -0.056096997 0.2800945
0.24803762 0.313205 -0.06704093 -0.54439574 -0.077454045 0.011197758 0.3772915 0.3012289
-0.36255795 -0.17221826 0.13426891 0.1822082 0.37891567 0.14906472 -0.22267005 -0.049926236
-0.14574482 0.2696206 0.26458997 0.14777514 -0.04520262 -0.00706172 0.0771153 0.23084852
0.08376526 -0.12530456 -0.1536977 0.2059386 0.2371341 0.38825887 -8.877551e-05 -0.06389605
-0.21290594 0.040806256 0.36116287 0.0030277069 -0.13189559 -0.28864843 0.064549066 0.28414303
0.116622575 0.028191468 -0.35128456 -0.17601918 0.22881381 0.19662897 -0.120137356 -0.083954446
0.22573645 0.4317434 -0.028302703 -0.08338574 -0.054771706 -0.23428525 -0.27668667 0.027288802
-0.22600296 -0.17336892 -0.09281242 0.043226335 0.33401015 -0.30745205 -0.18408117 -0.024210453
0.30852857 0.25338095 -0.12010748 0.14561377 0.32161295 0.21584062 0.16649698 0.17707638
0.13587236 0.19999202 0.20949301 -0.11012151 0.21913181 -0.2439883 -0.25058874 -0.31470338
0.02981903 -0.16873735 -0.026142536 -0.135254 0.049737506 0.26450273 0.09459026 0.088279635
-0.02231814 0.009796079 0.20686449 0.14870249 0.17265835 -0.22874357 -0.09597483 0.21862851
-0.17268227 -0.12583116 -0.08291651 0.3148506 0.16455768 0.16567613 0.2562211 -0.028608667
-0.43287143 -0.1276376 -0.103538886 -0.031712882 0.057312418 0.013454527 0.21612422 0.023648327
0.44352597 0.554255 0.45865083 0.24398772 -0.01876464 -0.07288252 0.07838883 -0.043542605
0.039615974 -0.28970987 -0.26825538 -0.3737338 -0.21454081 -0.0024882774
00000000: 9205 01be 5a5b 80bb 1c2c 32be 397a d8bc
00000010: d195 a7bd 43f6 29bb 7637 4fbe ae6b 57bd
00000020: d882 a5be 2624 86be 2687 34bd b343 a03d
00000030: f7f8 a63d 00a2 ffbd 9df7 83be 1313 0f3e
00000040: d687 4f3e a067 4c3e 6abe c13e c01b 233e
00000050: 9b09 1b3e e453 3cbd f7c5 65bd 8c68 8f3e
00000060: 93fd 7d3e 685c a03e c14c 89bd 855d 0bbf
00000070: 3aa0 9ebd cd76 373c 5a2c c13e ad3a 9a3e
00000080: 32a1 b9be fc59 30be ca7d 093e c994 3a3e
00000090: 3c01 c23e 6ca4 183e 9e03 64be 747f 4cbd
000000a0: 213e 15be b60b 8a3e 5678 873e 5e52 173e
000000b0: 6226 39bd 0066 e7bb a0ee 9d3d 8e63 6c3e
000000c0: 1f8d ab3d d74f 00be ee62 1dbe 91e1 523e
000000d0: 48d3 723e dec9 c63e fd2c bab8 efdb 82bd
000000e0: 0404 5abe 7624 273d 57ea b83e 7e6c 463b
000000f0: a30f 07be bac9 93be 4d32 843d 327b 913e
00000100: d1d7 ee3d cbf1 e63c 92db b3be 5f3e 34be
00000110: 2b4e 6a3e 1b59 493e 930a f6bd 4ff0 abbd
00000120: 7527 673e 790d dd3e 12db e7bc 25c6 aabd
00000130: 4c58 60bd 79e8 6fbe e0a9 8dbe c48c df3c
00000140: 526d 67be 9f87 31be 7014 bebd 190e 313d
00000150: 6103 ab3e 5b6a 9dbe c67f 3cbe 0055 c6bc
00000160: 75f7 9d3e 26bb 813e e9fa f5bd c71b 153e
00000170: 74aa a43e 5305 5d3e 2f7e 2a3e 8353 353e
00000180: 2022 0b3e b5ca 4c3e 5685 563e 6387 e1bd
00000190: 1764 603e 12d8 79be 2b4d 80be cd20 a1be
000001a0: 0a47 f43c 7cc9 2cbe df28 d6bc 0680 0abe
000001b0: 8eb9 4b3d e76c 873e 8ab8 c13d f4cb b43d
000001c0: 88d4 b6bc bc7f 203c 49d4 533e 7745 183e
000001d0: 5acd 303e c13b 6abe 748e c4bd 27e0 5f3e
000001e0: 9fd3 30be e2d9 00be 22d0 a9bd 1934 a13e
000001f0: cf81 283e 01a7 293e 692f 833e b95c eabc
00000200: 53a1 ddbe 6eb3 02be 320c d4bd 5ee5 01bd
00000210: 6dc0 6a3d 6070 5c3c ab4f 5d3e 23ba c13c
00000220: d615 e33e a8e3 0d3f 48d4 ea3e ebd7 793e
00000230: 4db8 99bc 6e43 95bd 538a a03d bb59 32bd
00000240: 5c44 223d da54 94be c558 89be 095a bfbe
00000250: 96b0 5bbe 5e12 23bb

conv1.bias f4 [6]
-0.14631778 -0.059642125 -0.040298197 -0.068638414 -0.064139456 0.08609431
00000000: 54d4 15be 4d4b 74bd b90f 25bd 4c92 8cbd
00000010: 8c5b 83bd 3752 b03d

conv2.weight f4 [16, 6, 5, 5]
-0.05512306 0.012679872 -0.10059586 -0.020882536 0.17095633 -0.027818115 -0.042107876 -0.11380776
0.090931095 0.0032153667 -0.12617998 0.060946546 -0.03277311 -0.007904927 0.021100402 -0.050946213
0.036633708 0.052670117 0.08945764 0.033359427 0.052000638 0.16060333 0.13431258 -0.014692742
0.04915102 0.06818652 0.04125259 0.028953316 -0.16572213 -0.19619128 0.03577509 -0.027572414
0.065657556 0.012318954 0.0636293 -0.054836296 0.0052130157 -0.02464426 -0.002933954 -0.01290214
-0.014437117 0.13792157 0.17962159 0.093290076 0.13570918 0.14224063 0.11962842 -0.03413687
-0.023285944 -0.07029328 0.18393742 0.0134414565 -0.079125054 0.0016592633 -0.10508251 0.19278114
0.2116676 -0.0057797623 0.047591873 -0.07509367 0.019931182 -0.029178457 0.08281478 0.026979234
-0.12687778 -0.07043936 -0.18772607 -0.03975388 0.053354446 -0.23312248 -0.09933766 -0.0651507
-0.06585817 0.048724487 -0.024329022 0.032205764 -0.09717436 -0.15045528 0.049553707 0.01404685
0.015978767 -0.059006233 0.0017798339 0.19829227 0.051284395 0.044988364 -0.09073475 0.023426732
0.15667887 0.030139472 -0.003484029 -0.05688402 0.048926745 0.09014051 0.069942065 0.041769482
0.07994511 0.05631336 -0.07980814 -0.31170523 0.1709188 -0.059873477 0.09505491 0.106054366
-0.0011480688 0.10866344 -0.1377558 0.025798652 0.0043614116 0.002094223 0.028296884 -0.13567625
0.16441737 0.08966011 -0.021836333 -0.06888595 0.039553005 0.10160041 0.03015537 -0.03210206
-0.06371062 0.08889547 0.1321136 0.1538438 -0.0007044896 -0.23667972 -0.17998886 -0.3219317
-0.41143724 -0.41944805 -0.25680652 -0.3337496 -0.26952037 -0.34541237 -0.29242563 -0.30473998
-0.37935442 -0.29417092 -0.17522596 -0.12956396 -0.15663436 -0.17510277 -0.15124176 0.009633217
-0.03196621 0.09533763 0.113029025 0.028877722 -0.10627624 0.021219062 -0.10403309 -0.010368022
-0.008479568 0.095807254 0.024682894 -0.036507845 -0.039137233 -0.11917538 -0.07925398 -0.078936554
-0.091945425 -0.23236792 -0.10729537 -0.078360975 0.0072105215 -0.12601481 -0.110507675 0.0549193
0.07746202 0.15711461 -0.17852885 -0.11275959 0.043093562 -0.008882722 0.040753096 -0.11492657
-0.0132219065 0.0116590485 0.14736605 0.009961382 -0.044211924 -0.11955997 -0.13080671 -0.18682098
-0.17637216 -0.31971374 -0.103806086 -0.23068026 -0.2411604 -0.2833789 -0.2947123 -0.23818858
-0.16915573 -0.28831428 -0.11995422 -0.31894693 -0.2582879 -0.22285326 -0.056596626 0.11687057
0.1830849 0.17463528 0.075274944 -0.26838332 -0.096561186 0.1501074 0.2417419 -0.08350527
-0.17660591 -0.11827512 0.10381185 0.1439707 -0.010831923 -0.06296986 -0.12887882 0.02937503
-0.056222834 -0.110823326 0.021680292 -0.07220097 -0.07516814 -0.04074129 -0.1265194 0.14769748
0.056068946 0.112212285 0.24263245 0.17588511 -0.049730185 0.043367457 0.12682965 0.07810065
-0.011275843 -0.2895249 -0.11162522 0.11381248 -0.030271798 -0.10246375 -0.050430667 0.037524287
0.14957106 0.07472111 0.09029555 0.018585542 0.100678824 0.024265544 0.06655552 0.1018889
0.0058604022 -0.010046852 0.15945736 0.08120627 0.031109083 -0.123000436 -0.006692153 0.10158543
00000000: b8c8 61bd 3dbf 4f3c 3405 cebd da11 abbc
00000010: 2d0f 2f3e d1e2 e3bc 4f79 2cbd 0b14 e9bd
00000020: 153a ba3d e7b8 523b 5335 01be 16a3 793d
00000030: 193d 06bd ab83 01bc c0da ac3c faac 50bd
00000040: 3a0d 163d 9fbc 573d 9135 b73d e5a3 083d
00000050: 9ffe 543d 3375 243e 3d89 093e d4b9 70bc
00000060: 9452 493d 60a5 8b3d 7af8 283d 812f ed3c
00000070: 10b3 29be 5ee6 48be e788 123d 8bdf e1bc
00000080: 7877 863d 70d5 493c 1450 823d 069c 60bd
00000090: f2d1 aa3b c2e2 c9bc 9447 40bb 7f63 53bc
000000a0: a889 6cbc 503b 0d3e b9ee 373e de0e bf3d
000000b0: 59f7 0a3e 87a7 113e bfff f43d 1ad3 0bbd
000000c0: 2ac2 bebc ecf5 8fbd 175a 3c3e 8e39 5c3c
000000d0: 510c a2bd a37b d93a 8035 d7bd 6b68 453e
000000e0: 64bf 583e 2964 bdbb b2ef 423d b6ca 99bd
000000f0: b846 a33c a907 efbc cc9a a93d 8e03 dd3c
00000100: 40ec 01be 8342 90bd 433b 40be f7d4 22bd
00000110: 318a 5a3d a9b7 6ebe 8b71 cbbd bb6d 85bd
00000120: a6e0 86bd 5493 473d a84d c7bc 31ea 033d
00000130: 5a03 c7bd f310 1abe d4f8 4a3d c224 663c
00000140: e7e5 823c 85b0 71bd 5149 e93a 210d 4b3e
00000150: 960f 523d b845 383d 24d3 b9bd 6be9 bf3c
00000160: 6d70 203e 0ee7 f63c 4f54 64bb 38ff 68bd
00000170: 6967 483d 969b b83d c93d 8f3d 7a16 2b3d
00000180: 43ba a33d d6a8 663d 7372 a3bd d497 9fbe
00000190: 5705 2f3e e43d 75bd 26ac c23d 0833 d93d
000001a0: cc7a 96ba f08a de3d db0f 0dbe b257 d33c
000001b0: 2cea 8e3b 3b3f 093b dece e73c b7ee 0abe
000001c0: 075d 283e b89f b73d 1ce2 b2bc 1414 8dbd
000001d0: 5502 223d e013 d03d 6508 f73c 737d 03bd
000001e0: b77a 82bd d40e b63d ca48 073e 3b89 1d3e
000001f0: 7fad 38ba 2b5c 72be 004f 38be 3bd4 a4be
00000200: e7a7 d2be e5c1 d6be 257c 83be 3ae1 aabe
00000210: 93fe 89be e4d9 b0be d0b8 95be e106 9cbe
00000220: be3a c2be 929d 96be 6f6e 33be 6aac 04be
00000230: c264 20be 244e 33be 1fdf 1abe a4d4 1d3c
00000240: 00ef 02bd 6040 c33d c37b e73d f990 ec3c
00000250: 5ba7 d9bd 99d3 ad3c 4d0f d5bd a3de 29bc
00000260: e3ed 0abc 9836 c43d c833 ca3c 4089 15bd
00000270: 5d4e 20bd 3912 f4bd e94f a2bd 7da9 a1bd
00000280: e24d bcbd dbf1 6dbe adbd dbbd b87b a0bd
00000290: 3d46 ec3b 070a 01be d951 e2bd 0ff3 603d
000002a0: 68a4 9e3d a7e2 203e 44d0 36be 80ee e6bd
000002b0: e082 303d d688 11bc b8ec 263d 9f5e ebbd
000002c0: b2a0 58bc 9805 3f3c 20e7 163e 1035 233c
000002d0: 9017 35bd dcdb f4bd 32f2 05be 004e 3fbe
000002e0: e79a 34be 85b1 a3be 4998 d4bd 7237 6cbe
000002f0: c0f2 76be 0a17 91be 88e4 96be b5e7 73be
00000300: 2937 2dbe ee9d 93be 8faa f5bd 034d a3be
00000310: 503e 84be a533 64be ddd1 67bd d659 ef3d
00000320: 9c7a 3b3e 97d3 323e c029 9a3d 8a69 89be
00000330: dfc1 c5bd c1b5 193e 308b 773e d004 abbd
00000340: 2ed8 34be 3a3a f2bd 4f9b d43d 0e6d 133e
00000350: 6178 31bc 58f6 80bd cff8 03be e7a3 f03c
00000360: ea49 66bd 57f7 e2bd de9a b13c 1ade 93bd
00000370: c1f1 99bd 57e0 26bd 4d8e 01be 023e 173e
00000380: 8da8 653d 8ecf e53d a474 783e 3a1b 343e
00000390: e1b1 4bbd 13a2 313d a2df 013e 3cf3 9f3d
000003a0: 50be 38bc 9c3c 94be c39b e4bd 8416 e93d
000003b0: 90fc f7bc 84d8 d1bd 6390 4ebd 11b3 193d
000003c0: 2829 193e 6207 993d e0ec b83d b540 983c
000003d0: b330 ce3d 89c8 c63c 434e 883d 21ab d03d
000003e0: 9e08 c03b 8d9b 24bc ca48 233e 794f a63d
000003f0: 7ad8 fe3c a7e7 fbbd d949 dbbb 060c d03d

conv2.bias f4 [16]
-0.08355334 -0.018679768 -0.04740769 -0.11218835 -0.008131683 -0.003983155 -0.026468359 -0.122819476
-0.059380956 -0.04656403 -0.13765727 -0.02994317 -0.12415601 -0.07481468 0.13021597 -0.119698
00000000: 031e abbd 5006 99bc 912e 42bd 01c3 e5bd
00000010: c03a 05bc 2085 82bb 2cd4 d8bc c788 fbbd
00000020: 7239 73bd edb9 3ebd 07f6 0cbe 614b f5bc
00000030: 8245 febd 7038 99bd 5657 053e 3a24 f5bd

fc_1.weight f4 [120, 256]
0.10326363 -0.003070301 0.13611284 0.08817891 -0.15055461 -0.058310688 -0.12551449 0.03601769
-0.048019443 -0.042047445 -0.08913041 -0.014769426 -0.038504157 -0.026505219 -0.05876921 0.0028220364
-0.03637501 -0.15319183 -0.03176825 -0.053238805 0.045825165 0.078583516 -0.09165959 -0.069554806
0.08590845 -0.022737317 -0.053400964 -0.083126485 0.003579894 -0.048960358 0.0032746056 -0.0056403945
-0.14926401 -0.027348673 -0.09327961 -0.022318084 0.061169997 0.029820943 0.029948406 -0.018569136
-0.029094847 -0.07677907 -0.07830213 -0.06304133 -0.0339812 -0.09771254 -0.027568508 0.031032944
-0.048201267 -0.05955892 -0.025049247 -0.071842425 0.037537903 0.0056445817 -0.07905247 -0.10973897
-0.0009968666 -0.08777613 -0.017461829 0.027635807 0.028814845 0.015056518 0.077122815 0.12069212
-0.02171215 0.033393905 -0.007776288 -0.050815158 0.011414115 -0.061617065 0.064032786 0.01757768
-0.07831889 -0.13886042 0.03151148 -0.051634986 -0.036841977 -0.052749664 -0.054920677 -0.07517504
-0.08541019 -0.12832563 -0.055375732 -0.060498834 -0.0112161515 0.0041826162 -0.024486573 -0.06834357
0.045933936 0.01292759 -0.07045522 -0.0880963 -0.11173027 -0.16601744 -0.085317574 -0.003936118
-0.013746817 -0.056869227 0.008453221 -0.050062235 -0.019692596 0.012026264 0.012581602 -0.035469264
0.07904325 -0.01384459 -0.015289476 0.049506307 0.07614434 -0.036150016 -0.06835453 0.054015413
0.012841136 -0.070294745 -0.024581376 -0.09840258 0.0037989898 -0.018292457 -0.09291856 -0.03959905
-0.0071842633 -0.0013481735 0.015002737 0.062316846 -0.06787691 -0.11514058 -0.12257772 -0.0066624056
-0.013643833 -0.08677017 -0.052301925 -0.04568422 -0.047365807 -0.017980704 -0.022854444 -0.036785793
-0.058244918 -0.013699034 0.029491998 -0.054001614 -0.093171984 -0.047089312 -0.06631972 -0.15500118
-0.0855055 -0.081678815 -0.012351144 -0.042915232 -0.027548505 -0.08342868 -0.07914592 -0.07020815
-0.050293814 -0.09397317 -0.06753841 -0.040766932 0.1103359 0.032584716 -0.07235937 -0.0139586
0.05836949 0.060289815 -0.03387438 -0.030218203 0.015579437 0.028521597 -0.09072911 0.054606054
-0.084812395 -0.0101070935 -0.050591893 0.016633738 -0.002883005 -0.04994283 -0.025830725 0.056524012
0.04320445 -0.1133919 -0.082661234 -0.14355034 -0.011048462 -0.003290782 0.023888998 0.04480118
-0.0448277 -0.08732652 -0.079190545 0.029357407 -0.027313964 -0.09872544 -0.09504258 0.0066434443
0.06357336 0.025535613 0.018590664 -0.06334953 0.121368825 0.042118862 -0.08803705 -0.08330081
-0.076163426 -0.026978744 -0.021858875 0.022264013 0.0005846898 0.080442056 -0.00040609716 -0.015716307
0.06445875 0.03099572 -0.09983852 -0.07028764 0.015044307 -0.13253334 -0.06328169 -0.023818959
-0.03610495 -0.03519481 -0.04968253 -0.0913786 -0.04467514 -0.062510565 -0.032289818 -0.026025346
0.16667707 0.100542836 0.052433077 -0.014218885 -0.07933549 0.026871923 0.018793015 -0.034744326
0.014276398 -0.10815791 -0.027068488 -0.09593924 0.06755708 0.038974755 -0.1181961 -0.06399014
0.010091231 -0.08469232 -0.0439588 -0.17559499 -0.049430665 -0.08026289 0.0781966 -0.1440555
-0.078675725 -0.06994191 -0.09758207 -0.070663124 -0.012343867 -0.110535175 -0.14528805 -0.02899804
00000000: e27b d33d 1a37 49bb 2a61 0b3e 2597 b43d
00000010: fd2a 1abe 30d7 6ebd df86 00be 4987 133d
00000020: 09b0 44bd f139 2cbd 018a b6bd 76fb 71bc
00000030: 89b6 1dbd 7921 d9bc fcb7 70bd eaf1 383b
00000040: f6fd 14bd 52de 1cbe 6d1f 02bd ef10 5abd
00000050: 2bb3 3b3d 65f0 a03d 06b8 bbbd c072 8ebd
00000060: c5f0 af3d 9c43 babc f8ba 5abd 383e aabd
00000070: a89c 6a3b a88a 48bd c49a 563b 0fd3 b8bb
00000080: aad8 18be 530a e0bc 6109 bfbd 6ad4 b6bc
00000090: 648d 7a3d 0d4b f43c 5c56 f53c 4d1e 98bc
000000a0: 5158 eebc 583e 9dbd de5c a0bd d01b 81bd
000000b0: df2f 0bbd 831d c8bd 5ad7 e1bc cd38 fe3c
000000c0: b16e 45bd 0ef4 73bd 1434 cdbc 1f22 93bd
000000d0: 58c1 193d 2ff6 b83b 43e6 a1bd d3be e0bd
000000e0: 4ba9 82ba f9c3 b3bd 1c0c 8fbc 7d64 e23c
000000f0: 1c0d ec3c 9daf 763c 91f2 9d3d 6e2d f73d
00000100: aedd b1bc 0cc8 083d 3bd0 febb 8e23 50bd
00000110: 4502 3b3c 2d62 7cbd 9f23 833d 11ff 8f3c
00000120: a765 a0bd 6d31 0ebe 2f12 013d 357f 53bd
00000130: 9de7 16bd 0810 58bd 81f4 60bd 5ff5 99bd
00000140: 8aeb aebd cb67 03be aad1 62bd a0cd 77bd
00000150: f3c3 37bc 540e 893b 1198 c8bc b7f7 8bbd
00000160: 3925 3c3d 3ece 533c d44a 90bd d56b b4bd
00000170: d7d2 e4bd 7a00 2abe fbba aebd 8dfa 80bb
00000180: 543a 61bc b5ef 68bd 617f 0a3c 0f0e 4dbd
00000190: 5e52 a1bc cf09 453c 1023 4e3c 3848 11bd
000001a0: 6de1 a13d 6bd4 62bc b680 7abc 20c7 4a3d
000001b0: 90f1 9b3d 0a12 14bd 76fd 8bbd 443f 5d3d
000001c0: a163 523c b1f6 8fbd e25e c9bc 4b87 c9bd
000001d0: 79f8 783b 10da 95bc 164c bebd 9d32 22bd
000001e0: f869 ebbb 32b5 b0ba 0ace 753c f33f 7f3d
000001f0: 0d03 8bbd d3ce ebbd 070a fbbd 4f50 dabb
00000200: 628a 5fbc 8fb4 b1bd 8b3a 56bd 601f 3bbd
00000210: a602 42bd 454c 93bc 3e39 bbbc b3ac 16bd
00000220: 3992 6ebd ea71 60bc 3499 f13c cc30 5dbd
00000230: f4d0 bebd b9e0 40bd a2d2 87bd a1b8 1ebe
00000240: 821d afbd 3947 a7bd 745c 4abc e2c7 2fbd
00000250: 67ad e1bc a8dc aabd 4217 a2bd 4ac9 8fbd
00000260: e300 4ebd 0175 c0bd 9451 8abd 3afb 26bd
00000270: caf7 e13d 8d77 053d 2631 94bd 9db2 64bc
00000280: d914 6f3d 74f2 763d ddbf 0abd 2a8c f7bc
00000290: e540 7f3c 20a6 e93c 2fd0 b9bd 99aa 5f3d
000002a0: 1fb2 adbd 3998 25bc 7239 4fbd 7a43 883c
000002b0: ccf0 3cbb da90 4cbd f59a d3bc b985 673d
000002c0: 26f7 303d 033a e8bd 4b4a a9bd dcfe 12be
000002d0: 9c04 35bc 29aa 57bb dcb2 c33c 7181 373d
000002e0: 409d 37bd 3fd8 b2bd a72e a2bd f27e f03c
000002f0: 89c1 dfbc 9030 cabd afa5 c2bd 40b1 d93b
00000300: c032 823d 1030 d13c 734b 983c 66bd 81bd
00000310: 3890 f83d d484 2c3d c54c b4bd 9d99 aabd
00000320: 92fb 9bbd 8702 ddbc 6211 b3bc 0563 b63c
00000330: de45 193a cebe a43d 70e9 d4b9 7cbf 80bc
00000340: f302 843d bcea fd3c 2378 ccbd f7f2 8fbd
00000350: 667c 763c d2b6 07be d599 81bd fa1f c3bc
00000360: c9e2 13bd 6f28 10bd e97f 4bbd b424 bbbd
00000370: 48fd 36bd 8a05 80bd 5442 04bd 1b33 d5bc
00000380: 65ad 2a3e 67e9 cd3d 11c4 563d 54f6 68bc
00000390: a57a a2bd 8222 dc3c cff3 993c 1150 0ebd
000003a0: 8ee7 693c e581 ddbd bcbe ddbc cb7b c4bd
000003b0: 5e5b 8a3d fea3 1f3d cc10 f2bd 430d 83bd
000003c0: b155 253c 2b73 adbd 250e 34bd 2ccf 33be
000003d0: cf77 4abd df60 a4bd 8a25 a03d 4983 13be
000003e0: bd20 a1bd b43d 8fbd 1cd9 c7bd d4b7 90bd
000003f0: ee3d 4abc 4460 e2bd 64c6 14be 4c8d edbc

fc_1.bias f4 [120]
-0.0047533875 0.039437227 -0.055007447 0.10813449 -0.024320815 0.08472482 -0.030272346 0.08772592
-0.013638914 -0.04920444 0.061569214 -0.04404745 -0.0042701056 0.0017908061 -0.10020752 -0.064387046
0.04095718 -0.13123544 0.009278131 -0.0011638431 0.015996557 0.026478032 0.07449793 -0.0040839068
-0.030080076 0.02683167 0.06505843 0.1050153 0.031150902 -0.028153706 -0.007937183 0.049805246
-0.03276377 0.026366534 0.04109967 -0.091987245 -0.059424885 -0.06654713 -0.07030667 0.048583854
0.06943314 0.10558492 -0.030609218 -0.050973397 0.005284968 0.060932487 0.018313749 -0.024764515
0.05089002 -0.040493242 0.016799346 -0.084897 0.017534407 -0.050180726 0.007946691 0.042136826
0.0019914978 -0.04204198 0.0941727 0.03129152 -0.04734208 -0.08013525 -0.07858648 -0.04510524
-0.10499131 -0.042341374 0.032231797 0.0456282 0.04359921 -0.019359944 0.021387829 -0.05555297
-0.013963202 -0.0369583 0.047968045 -0.050411824 -0.022989444 -0.018430742 0.030115895 -0.02550609
-0.062037066 0.01896091 0.09328435 0.020604001 -0.05746335 0.012489784 0.07262061 0.026017591
0.02667868 0.0150121115 -0.008663566 -0.06387524 0.015705157 -0.0009954446 -0.086753346 -0.020908384
0.0103224255 -0.011910294 0.00880838 0.08122642 0.07742792 0.074931435 0.016781036 0.061414625
0.02155473 0.15644261 -0.06991449 -0.10087994 0.05674659 0.044892553 0.066674165 -0.009572982
0.03685167 -0.0022222698 0.013099552 -0.058492128 -0.02324301 0.07167903 -0.09667077 -0.015529916
00000000: 4ec2 9bbb ee88 213d 7d4f 61bd 9e75 dd3d
00000010: 723c c7bc 3584 ad3d b6fd f7bc a6a9 b33d
00000020: c075 5fbc 988a 49bd 0030 7c3d 196b 34bd
00000030: 3eec 8bbb 7bb9 ea3a 9a39 cdbd 5bdd 83bd
00000040: b7c2 273d 9562 06be 4d03 183c 188c 98ba
00000050: 360b 833c 75e8 d83c 5f92 983d 4bd2 85bb
00000060: 7e6a f6bc 17ce db3c 5b3d 853d 4312 d73d
00000070: 2d30 ff3c 9aa2 e6bc f50a 02bc 9600 4c3d
00000080: 4e33 06bd a1fe d73c 2158 283d cf63 bcbd
00000090: 8267 73bd dd49 88bd f2fc 8fbd ddff 463d
000000a0: f632 8e3d e83c d83d 2fc0 fabc 7bc9 50bd
000000b0: 862d ad3b 5894 793d b706 963c f4de cabc
000000c0: 0e72 503d 3edc 25bd c89e 893c 7ade adbd
000000d0: 51a4 8f3c 4e8a 4dbd d632 023c aa97 2c3d
000000e0: ca83 023b 3634 2cbd 9edd c03d 892b 003d
000000f0: c5e9 41bd f31d a4bd f3f1 a0bd 46c0 38bd
00000100: af05 d7bd 266e 2dbd 7d05 043d a3e4 3a3d
00000110: 1695 323d bf98 9ebc 8735 af3c 838b 63bd
00000120: eac5 64bc 9661 17bd 247a 443d a17c 4ebd
00000130: 5c54 bcbc 11fc 96bc 9cb5 f63c 26f2 d0bc
00000140: 941a 7ebd e953 9b3c de0b bf3d b9c9 a83c
00000150: b15e 6bbd f3a1 4c3c 1dba 943d d822 d53c
00000160: 3f8d da3c 5cf5 753c a1f1 0dbc 06d1 82bd
00000170: 1aa8 803c 9479 82ba bdab b1bd 0f48 abbc
00000180: 641f 293c 6523 43bc 0651 103c 0a5a a63d
00000190: 8892 9e3d a775 993d 6278 893c e78d 7b3d
000001a0: 8c93 b03c 7e32 203e 542f 8fbd 249a cebd
000001b0: 1d6f 683d 41e1 373d 778c 883d ffd7 1cbc
000001c0: c7f1 163d 80a3 11bb 819f 563c 7195 6fbd
000001d0: 2068 bebc 75cc 923d 53fb c5bd 3071 7ebc

fc_2.weight f4 [84, 120]
-0.042463224 0.15460898 0.017496597 -0.08327279 -0.016513243 -0.15783317 0.15518323 0.052937202
0.13949649 0.06981812 -0.114130236 -0.14379287 -0.043024044 0.07575008 0.014404114 -0.09152898
4.0619554e-05 0.016501294 -0.031170128 0.07623804 0.07184385 0.080337636 0.07360139 0.0523635
0.11203234 -0.0010722778 -0.21385363 -0.00923838 0.17015037 0.051554807 0.1219547 0.061639454
0.089165986 -0.1116329 -0.12216499 -0.042706244 -0.05303205 -0.22380315 -0.027046578 0.10451723
0.09129454 0.12477331 0.048786562 0.018448874 0.12031937 -0.01726687 0.14703956 -0.045702375
0.105638176 0.03674177 0.0036446643 -0.10141123 -0.01784801 -0.14258766 0.09260582 -0.015092096
0.06764507 -0.07121717 0.05494496 0.032054935 0.072179295 0.03678959 0.16692057 -0.26869437
-0.0025510127 0.04452188 -0.05917761 0.19868988 -0.09141205 -0.11472488 0.09582053 -0.0605718
0.04869143 -0.017745778 0.06096901 -0.040871397 -0.0077375458 -0.01607392 0.23583433 0.0074335015
-0.03673673 -0.08152287 0.047618106 -0.004194254 -0.16809624 -0.07126072 0.0055044084 0.09504416
-0.00074721547 0.008645236 -0.0209059 -0.032442052 0.05768928 -0.09457512 0.16334027 -0.074828476
-0.044253837 -0.32706416 -0.09509204 0.13804638 0.11868683 0.03989999 -0.010037087 -0.09941572
0.009562188 0.08080963 -0.01495342 -0.10744905 -0.16029967 0.15639564 0.1925169 -0.058319397
0.013902981 -0.0028983688 0.054963224 -0.09240993 -0.31538296 0.019992406 -0.2973459 -0.07540385
-0.02544752 0.038941678 -0.12908398 -0.23343158 -0.043399595 -0.17452106 -0.22909029 0.09029265
-0.14870557 0.07640368 0.13343024 -0.050810885 -0.056426693 -0.1140237 0.12609972 -0.00031206626
0.10197291 -0.06496742 0.058316965 0.13612218 0.22856094 -0.006116903 0.14710414 -0.13517877
0.0077887573 -0.055372708 -0.002861265 -0.17307456 -0.12757912 -0.0403186 -0.1001214 0.008339583
0.26681364 -0.02041506 -0.112634815 0.0280633 -0.06627648 0.0190906 -0.033840466 -0.05981594
0.1052334 0.022890676 0.08004979 -0.055469785 -0.15182476 -0.20672378 0.06438521 -0.060841274
-0.14921124 0.0053934287 0.06076171 0.116489545 -0.22787848 0.088546894 0.07895444 0.013637707
-0.016388332 0.16916169 0.047879107 -0.045238033 0.08431199 0.015098969 -0.1816923 0.046670273
-0.09979668 -0.021662103 -0.039533418 -0.062868804 -0.27973083 -0.010995283 0.0538829 -0.0025132473
0.018003033 -0.003421284 -0.0013895431 0.02600819 0.11251824 -0.080455914 0.07124464 0.11268578
-0.008181769 0.08860152 -0.02537421 0.014982489 0.02175108 0.16619945 -0.12016798 -0.07440405
-0.09646804 -0.051191576 -0.06393499 0.011767486 -0.010700576 -0.28060862 0.06436725 0.07071768
0.05938282 0.18674901 0.091252215 0.08628171 0.10616915 0.10993638 0.23000956 0.020073324
0.051786155 0.23380478 0.047670554 0.09449856 0.17607662 -0.04120904 -0.08079029 0.032798547
-0.016200798 0.11330903 0.03758076 -0.0032236252 0.237022 0.11810143 0.018852456 0.06821288
-0.027926328 -0.16363768 0.1362214 -0.27731335 0.07120817 -0.04676788 -0.07276109 0.12696299
-0.0019169528 -0.09184752 -0.05806362 0.054767936 -0.055936664 0.08438414 0.065678425 0.070868425
00000000: ebed 2dbd d151 1e3e 0655 8f3c ed8a aabd
00000010: c846 87bc 059f 21be 5ae8 1e3e aed4 583d
00000020: 2bd8 0e3e cdfc 8e3d 1dbd e9bd 703e 13be
00000030: fb39 30bd dc22 9b3d 3cff 6b3c 8c73 bbbd
00000040: ea5e 2a38 b92d 873c 7f58 ffbc b122 9c3d
00000050: de22 933d 0f88 a43d 53bc 963d 1c7b 563d
00000060: 3671 e53d ac8b 8cba 72fc 5abe 935c 17bc
00000070: e63b 2e3e 222b 533d 63c3 f93d a779 7c3d
00000080: a89c b63d ca9f e4bd a331 fabd beec 2ebd
00000090: 2338 59bd a72c 65be c990 ddbc 210d d63d
000000a0: a2f8 ba3d 2689 ff3d 6bd4 473d 1822 973c
000000b0: 006a f63d 4073 8dbc 8a91 163e 6a32 3bbd
000000c0: d458 d83d 8a7e 163d 52db 6e3b b1b0 cfbd
000000d0: fd35 92bc 8002 12be 1fa8 bd3d d744 77bc
000000e0: 8089 8a3d 4fda 91bd f70d 613d 094c 033d
000000f0: bdd2 933d aeb0 163d 3aed 2a3e 4f92 89be
00000100: e42e 27bb 935c 363d 3964 72bd 5c75 4b3e
00000110: 3e36 bbbd e1f4 eabd 8e3d c43d 231a 78bd
00000120: aa70 473d 985f 91bc a4ba 793d c468 27bd
00000130: 3d8b fdbb 74ad 83bc 8e7e 713e bb94 f33b
00000140: 4179 16bd 76f5 a6bd 340b 433d f46f 89bb
00000150: 6c21 2cbe 24f1 91bd 535e b43b 83a6 c23d
00000160: c8e0 43ba bfa4 0d3c da42 abbc f5e1 04bd
00000170: 984b 6c3d 9ab0 c1bd ac42 273e ac3f 99bd
00000180: 8343 35bd f474 a7be 9ebf c2bd 085c 0d3e
00000190: 1512 f33d 2c6e 233d 9872 24bc 789a cbbd
000001a0: b9aa 1c3c 857f a53d 30ff 74bc 3f0e dcbd
000001b0: 9925 24be 2e26 203e 2623 453e 52e0 6ebd
000001c0: 54c9 633c 8ff2 3dbb 1e21 613d 6b41 bdbd
000001d0: e079 a1be 1dc7 a33c b93d 98be 556d 9abd
000001e0: 5177 d0bc 4f81 1f3d 972e 04be b008 6fbe
000001f0: c6c3 31bd a6b5 32be a596 6abe 5aeb b83d
00000200: 4646 18be 8879 9c3d f0a1 083e 131f 50bd
00000210: ad1f 67bd 4285 e9bd 4920 013e d39c a3b9
00000220: 2cd7 d03d a40d 85bd c5dd 6e3d 9d63 0b3e
00000230: e10b 6a3e 4d70 c8bb 78a2 163e 4e6c 0abe
00000240: d538 ff3b 7ece 62bd 1084 3bbb 753a 31be
00000250: 1aa4 02be 1e25 25bd 730c cdbd bfa2 083c
00000260: cc9b 883e 7c3d a7bc 15ad e6bd 01e5 e53c
00000270: f7bb 87bd e463 9c3c 4d9c 0abd 8f01 75bd
00000280: 9c84 d73d 3a85 bb3c 25f1 a33d 4934 63bd
00000290: f377 1bbe 66af 53be 65dc 833d b334 79bd
000002a0: d5ca 18be 5cbb b03b 45e1 783d 1292 ee3d
000002b0: fa58 69be 1358 b53d deb2 a13d b070 5f3c
000002c0: d340 86bc b938 2d3e e21c 443d 844b 39bd
000002d0: c4ab ac3d ab61 773c 8c0d 3abe 5429 3f3d
000002e0: 3462 ccbd b974 b1bc cbed 21bd 5cc1 80bd
000002f0: e138 8fbe 8f25 34bc 51b4 5c3d 4bb5 24bb
00000300: 197b 933c 9f37 60bb 5421 b6ba 210f d53c
00000310: f76f e63d 12c6 a4bd b6e8 913d cdc7 e63d
00000320: d40c 06bc b774 b53d 93dd cfbc 1d79 753c
00000330: 522f b23c 3030 2a3e a11a f6bd 2761 98bd
00000340: 0991 c5bd 42ae 51bd 59f0 82bd 6acc 403c
00000350: 7851 2fbc efab 8fbe fad2 833d 6ed4 903d
00000360: 663b 733d 223b 3f3e 71e2 ba3d 77b4 b03d
00000370: 366f d93d 5326 e13d a087 6b3e d070 a43c
00000380: b81d 543d 856a 6f3e 3342 433d 7688 c13d
00000390: 6e4d 343e cfca 28bd 6175 a5bd c557 063d
000003a0: 89b7 84bc 910e e83d 48ee 193d 7543 53bb
000003b0: e5b5 723e 2adf f13d 7770 9a3c 32b3 8b3d
000003c0: c1c5 e4bc a390 27be 9f7d 0b3e 04fc 8dbe
000003d0: 97d5 913d ad8f 3fbd c403 95bd 9602 023e
000003e0: 4342 fbba 8d1a bcbd 1ed4 6dbd 5854 603d
000003f0: d81d 65bd 98d1 ac3d 6982 863d 7723 913d

fc_2.bias f4 [84]
0.14397138 -0.011154944 -0.08346577 0.13227335 0.006319988 -0.056124806 0.10386909 0.059267223
-0.14398874 0.08475881 0.0042621964 0.08324513 -0.0091449 -0.077926315 0.1417015 0.058042955
-0.07789383 0.0565262 -0.08266723 0.017579338 0.13448639 -0.035254605 0.17419456 0.052032553
0.03712322 0.09059362 -0.032650292 0.10084739 -0.07214778 0.1510027 -0.011178608 -0.053487252
0.059226893 -0.08923069 -0.058373075 0.029580915 0.09402454 -0.09827707 -0.03798737 0.0592701
0.10801613 0.012368748 -0.13729657 0.026450122 0.0671133 -0.054040786 -0.060294844 0.15861598
-0.021414679 -0.069727704 -0.07964438 -0.10260554 -0.09985609 -0.062431052 -0.14031987 0.14821556
-0.07021132 -0.080801636 -0.060736265 0.06840296 0.15776958 -0.021238074 0.007121339 0.13601989
0.105605625 0.10502994 0.09895526 -0.036832556 -0.05277116 -0.08789395 -0.04525499 -0.044228885
0.13990116 0.12097384 -0.029385187 0.00842609 0.12662923 0.03350988 -0.045567 0.117007405
0.06280819 0.06999164 0.06266721 0.085509315
00000000: 3c6d 133e 3ac3 36bc 1af0 aabd aa72 073e
00000010: e717 cf3b 20e3 65bd 51b9 d43d 30c2 723d
00000020: c971 13be 0796 ad3d e5a9 8b3b 6c7c aa3d
00000030: 7ed4 15bc d597 9fbd 331a 113e 73be 6d3d
00000040: cd86 9fbd 0488 673d 704d a9bd 8b02 903c
00000050: cdb6 093e 2267 10bd 0f60 323e 1620 553d
00000060: 840e 183d 2689 b93d 50bc 05bd 1489 ce3d
00000070: 37c2 93bd 74a0 1a3e 7b26 37bc 7315 5bbd
00000080: e697 723d 94be b6bd 9b18 6fbd ad53 f23c
00000090: f08f c03d 7d45 c9bd a598 1bbd 34c5 723d
000000a0: 9037 dd3d 4aa6 4a3c 7997 0cbe edad d83c
000000b0: b372 893d df59 5dbd baf7 76bd 3a6c 223e
000000c0: d66d afbc 66cd 8ebd 981c a3bd da22 d2bd
000000d0: 5a81 ccbd b4b7 7fbd 03b0 0fbe d2c5 173e
000000e0: f4ca 8fbd 547b a5bd 97c6 78bd da16 8c3d
000000f0: 598e 213e 78fb adbc 1f5a e93b cc48 0b3e
00000100: c347 d83d f019 d73d 0ea9 ca3d bcdd 16bd
00000110: 9226 58bd be01 b4bd 4c5d 39bd 5929 35bd
00000120: 4042 0f3e 22c1 f73d 34b9 f0bc 950d 0a3c
00000130: 18ab 013e a841 093d 76a4 3abd 94a1 ef3d
00000140: 95a1 803d c757 8f3d ab57 803d 821f af3d

fc_3.weight f4 [10, 84]
0.18324265 -0.18050428 0.070964076 0.1932173 -0.19638261 0.12808862 0.045743886 0.11011645
-0.014441773 -0.031754702 -0.15056314 0.028674982 -0.11255347 0.020733451 -0.24310629 0.036621477
-0.061833438 -0.11800847 -0.043552127 0.140078 -0.21578848 0.06556441 0.06414922 -0.23283444
-0.051434085 -0.27272904 -0.0698505 0.005659554 -0.0150958495 -0.13601266 0.13301693 0.14383665
-0.13875325 0.035145406 -0.22119844 -0.14402083 0.1621998 0.09470631 -0.029468825 0.0543117
-0.252528 -0.17701529 -0.19109945 -0.021362808 -0.18663958 0.012978751 0.008460801 -0.25408152
-0.009652959 0.01938161 -0.019990591 -0.08372162 -0.08543639 -0.21805286 -0.21182588 -0.083991
0.18651667 0.0840863 0.019735431 -0.03873725 -0.24816538 -0.062148694 -0.32447776 -0.024275437
0.09629068 0.12839337 -0.2681477 0.01694664 -0.12759954 0.05646973 -0.015249507 -0.038635455
0.10085164 0.2721225 0.05252109 -0.008436276 -0.3230746 0.027487058 -0.0831595 -0.18853417
-0.14887352 -0.27906388 -0.113359965 -0.45113763 -0.08149338 0.065295205 -0.16221023 -0.056996983
0.20221049 0.033075746 0.06913007 -0.053099774 0.027338594 0.0779682 -0.019082975 -0.025403999
0.12996212 -0.28640887 0.11500959 -0.1599065 0.07847296 -0.14315584 -0.04683817 0.16739064
0.14413643 -0.16560046 -0.042681094 -0.094790675 0.143816 -0.09601348 0.018474752 0.09674996
-0.15450124 0.024272462 0.14479488 0.17479546 0.094351836 -0.013493066 -0.27613616 0.02849861
0.009582711 0.024652867 0.053124696 -0.28904864 0.0052921674 -0.20192932 -0.16484898 -0.08122977
-0.21300772 -0.052595913 -0.0045000007 -0.013710678 -0.11715826 -0.16779114 0.008775538 -0.020501018
-0.057051 -0.06546181 0.017587747 0.1448165 -0.23576324 -0.21578324 0.013519279 -0.060975295
0.09996261 -0.006682704 -0.081724666 -0.21929961 -0.25946066 -0.23206308 -0.056766734 -0.23309717
-0.07022155 -0.010268291 -0.20999055 0.09235514 -0.099651344 0.2325981 -0.13826185 0.022204107
-0.015576709 -0.22429435 -0.074583225 0.14378606 0.032079816 0.04009472 -0.35436344 0.083530426
-0.124480754 -0.084497325 0.16640103 0.039427534 -0.15417825 -0.002336601 -0.3025878 0.12105737
-0.030376084 -0.22262819 0.13053882 0.10028763 -0.015340041 -0.20474651 -0.069730364 0.03477971
-0.1020252 -0.007575679 0.20396735 0.1283846 -0.087928474 0.10547691 0.084824555 0.039405856
0.2128086 0.08318058 -0.03867045 0.15677983 0.23441567 -0.180521 0.01806265 -0.007859381
-0.08208149 0.046064302 0.028816788 -0.035192486 -0.3459359 -0.0023752537 -0.08958198 0.006288564
0.05709029 -0.12758198 -0.07337597 -0.08902969 -0.15462957 -0.15398031 -0.058857176 0.1090679
-0.034634415 0.041707344 0.120559074 -0.0028581247 0.037671506 -0.13330376 0.0642833 0.15533848
-0.21234554 -0.19989255 -0.043154478 -0.024519054 -0.24261796 0.03409642 -0.07395566 0.034508478
0.103669584 -0.12638128 -0.093382396 -0.06802229 -0.21419461 -0.007121243 0.057717208 -0.092670806
0.1345498 -0.37911168 0.10973044 0.023347655 -0.14010338 -0.19693166 0.004330169 0.18594941
-0.20204492 -0.15380694 -0.118909426 -0.32777485 -0.11959604 -0.05288192 -0.12385121 -0.22284678
00000000: f6a3 3b3e 1dd6 38be 9d55 913d c2da 453e
00000010: 8618 49be aa29 033e f15d 3b3d bc84 e13d
00000020: 309d 6cbc 3811 02bd 392d 1abe cce7 ea3c
00000030: 6f82 e6bd 33d9 a93c dbf0 78be 6700 163d
00000040: 0f45 7dbd 6dae f1bd b763 32bd 9b70 0f3e
00000050: a8f7 5cbe a246 863d ab60 833d 276c 6ebe
00000060: 8cac 52bd 24a3 8bbe c70d 8fbd c873 b93b
00000070: 9554 77bc e746 0bbe 9735 083e ea49 133e
00000080: 5515 0ebe a1f4 0f3d d881 62be 327a 13be
00000090: b417 263e 62f5 c13d 9b68 f1bc f275 5e3d
000000a0: 5a4b 81be 7f43 35be 93af 43be 0e01 afbc
000000b0: 721e 3fbe d4a4 543c 2c9f 0a3c f916 82be
000000c0: 7227 1ebc 2fc6 9e3c 4fc3 a3bc 3e76 abbd
000000d0: 46f9 aebd 4049 5fbe e2e8 58be 7903 acbd
000000e0: 3afe 3e3e 7035 ac3d 33ac a13c f3aa 1ebd
000000f0: 111f 7ebe a18f 7ebd f321 a6be 48dd c6bc
00000100: 0c34 c53d 8d79 033e a84a 89be aed3 8a3c
00000110: 74a9 02be ce4c 673d 11d9 79bc 3640 1ebd
00000120: 4e8b ce3d a453 8b3e 5b20 573d 4e38 0abc
00000130: 096a a5be 8a2c e13c 874f aabd 1a0f 41be
00000140: 4d72 18be 76e1 8ebe 4529 e8bd 83fb e6be
00000150: 00e6 a6bd 7eb9 853d 701a 26be ab75 69bd
00000160: 4410 4f3e 6f7a 073d 1194 8d3d 267f 59bd
00000170: 30f5 df3c cbad 9f3d e653 9cbc 0c1c d0bc
00000180: ca14 053e 2fa4 92be 268a eb3d 88be 23be
00000190: 6eb6 a03d 7297 12be 62d9 3fbd 7468 2b3e
000001a0: 8098 133e 2b93 29be 5fd2 2ebd 9d21 c2bd
000001b0: 8044 133e b7a2 c4bd 5d58 973c d824 c63d
000001c0: 9335 1ebe 0bd7 c63c 1c45 143e 95fd 323e
000001d0: 893b c13d 0512 5dbc b861 8dbe eb75 e93c
000001e0: ce00 1d3c cff4 c93c 4899 593d 2ffe 93be
000001f0: eb69 ad3b 8fc6 4ebe 2cce 28be cb5b a6bd
00000200: b21e 5abe d06e 57bd be74 93bb c0a2 60bc
00000210: abf0 efbd 71d1 2bbe 46c7 0f3c c0f1 a7bc
00000220: 4fae 69bd d710 86bd 2e14 903c c74a 143e
00000230: eb6b 71be 48f6 5cbe f77f 5d3c 3bc1 79bd
00000240: 32b9 cc3d 96fa dabb 435f a7bd 1490 60be
00000250: 07d8 84be f2a1 6dbe 3c84 68bd 06b1 6ebe
00000260: 51d0 8fbd 563c 28bc c307 57be b124 bd3d
00000270: 0116 ccbd 322e 6e3e 8494 0dbe 63e5 b53c
00000280: 7435 7fbc 6bad 65be 17bf 98bd a73c 133e
00000290: 2066 033d 5c3a 243d 206f b5be 0012 ab3d
000002a0: c4ef febd ef0c adbd 0865 2a3e c47e 213d
000002b0: e7e0 1dbe a921 19bb caec 9abe edec f73d
000002c0: 44d7 f8bc a5f8 63be f8ab 053e 9a63 cd3d
000002d0: cc54 7bbc 12a9 51be cbce 8ebd 2b75 0e3d
000002e0: 97f2 d0bd 673d f8bb d1dc 503e 4177 033e
000002f0: d813 b4bd 4704 d83d 7fb8 ad3d 0968 213d
00000300: 7fea 593e 945a aa3d e864 1ebd e48a 203e
00000310: a90a 703e 7fda 38be 1ff8 933c a2c4 00bc
00000320: 571a a8bd ecad 3c3d 2f11 ec3c ff25 10bd
00000330: 831e b1be 25aa 1bbb c276 b7bd 4c10 ce3b
00000340: 82d7 693d daa4 02be 2446 96bd 3355 b6bd
00000350: 3757 1ebe 04ad 1dbe 3914 71bd fe5e df3d
00000360: d1dc 0dbd 52d5 2a3d ade7 f63d 604f 3bbb
00000370: 704d 1a3d c880 08be f6a6 833d 0d11 1f3e
00000380: 1c71 59be a2b0 4cbe c0c2 30bd 2fdc c8bc
00000390: d870 78be b0a8 0b3d 1176 97bd c358 0d3d
000003a0: b850 d43d 186a 01be 453f bfbd 454f 8bbd
000003b0: d555 5bbe 5159 e9bb e168 6c3d 31ca bdbd
000003c0: 6cc7 093e ed1a c2be 5aba e03d 9543 bf3c
000003d0: 4377 0fbe 74a8 49be 17e4 8d3b 8669 3e3e
000003e0: dde4 4ebe 917f 1dbe c986 f3bd 1bd2 a7be
000003f0: c5ee f4bd b69a 58bd b4a5 fdbd f231 64be

fc_3.bias f4 [10]
0.00074319646 -0.086379126 0.019904165 0.0185266 0.030686077 -0.03518788 -0.1269316 -0.042509846
0.16674483 0.15259548
00000000: 12d3 423a 8ae7 b0bd 0f0e a33c 19c5 973c
00000010: 5e61 fb3c 2b21 10bd 5bfa 01be ce1e 2ebd
00000020: 28bf 2a3e fd41 1c3e
