weights/MLP_MNIST.pt (torch, 891932 bytes, 6 tensors)

input_fc.weight f4 [250, 784]
0	0xbc20e939	-0.00982123
1	0xbca34822	-0.019931857
2	0x3c866176	0.016403895
3	0x3ccce56a	0.025011737
4	0x3d225fc7	0.03964212
5	0x3d1ead11	0.038739268
6	0xbba7c83d	-0.005120306
7	0x3ce626f9	0.028094755
8	0xbc4c1bb3	-0.012457776
9	0xbc2f8b57	-0.010714374
10	0x3ca2023c	0.019776456
11	0xbcb2cc88	-0.021826044
12	0x3d06598d	0.032800246
13	0xbbdc1395	-0.0067162015
14	0x3d20cfaf	0.039260563
15	0xbc91b1bd	-0.017784948
16	0x3ad7c2ba	0.0016461231
17	0xbc9713d6	-0.018442076
18	0xbc09003a	-0.00836187
19	0x3d172e99	0.036909673
20	0x3ceeb09c	0.029136948
21	0xbc3c5935	-0.011495878
22	0x3cc73f5a	0.0243222
23	0xba916462	-0.0011092538
24	0x3d27af03	0.04093839
25	0xbc21e8bd	-0.009882149
26	0x3b42cc8f	0.0029723977
27	0x3cae0985	0.021244774
28	0xbbb21e02	-0.005435706
29	0x3d123171	0.035691682
30	0x3ced0d24	0.02893693
31	0x3d3e2bf5	0.04642864
32	0xbc79cc99	-0.015246534
33	0x3d437b2d	0.04772489
34	0x3ab846aa	0.0014059145
35	0xbcb5cea6	-0.022193264
36	0x3bad9473	0.0052972375
37	0x3d395fe9	0.045257483
38	0xbc5b48b5	-0.013384034
39	0x3c136c5c	0.008998003
40	0x3c93289e	0.017963704
41	0x3cd0e886	0.0255015
42	0xbbd2d3fb	-0.0064339614
43	0xbc1b586e	-0.0094815325
44	0xbca2c08d	-0.019867206
45	0x3d011565	0.031514544
46	0xbc9d40e8	-0.019195989
47	0x3d0fc5f1	0.03510088
48	0x3d3f2b8b	0.046672385
49	0x3d0affbb	0.03393529
50	0x3c9ba2aa	0.018998463
51	0x3cae28d3	0.0212597
52	0x3d133feb	0.03594963
53	0xbca84f70	-0.020545691
54	0x3c4a78a7	0.012357867
55	0x3ca7c887	0.020481361
56	0x3d316561	0.043309573
57	0x3d26cdfb	0.040723782
58	0xbbe0d5e4	-0.0068614352
59	0x3d2e320d	0.0425282
60	0x3b5c8a77	0.0033651867
61	0xbc527039	-0.012844139
62	0x3c8f0837	0.017459972
63	0xbc0ebd5c	-0.008712139
64	0xbc9555e4	-0.018229432
65	0x3ca2aa54	0.01985661
66	0x3ae6adf4	0.001759945
67	0x3cf59afe	0.029981133
68	0x3c78dd55	0.015189488
69	0x3cb7c59f	0.0224331
70	0xbc098c1f	-0.008395224
71	0xbb4f1e4d	-0.0031603754
72	0x3c979749	0.018504756
73	0x3c950b60	0.0181939
74	0xbc5d34d3	-0.013501364
75	0x3bc92304	0.0061382074
76	0x3d2552a4	0.040362015
77	0x3c8e3f77	0.017364247
78	0x3ca16c5d	0.019704992
79	0x3d07b387	0.033130195
80	0x3c1a98e5	0.009435867
81	0x3d15a1a6	0.036531113
82	0xbcadc88a	-0.021213789
83	0x3b848f28	0.004045386
84	0xbcb13df6	-0.02163599
85	0x3d43eb07	0.04783156
86	0xbc95bc27	-0.018278195
87	0x3cfb9aad	0.030713404
88	0xbc9c5d66	-0.019087505
89	0xbb87483c	-0.004128484
90	0x3d0b59ac	0.034021065
91	0x3d405cab	0.046963375
92	0x3d596765	0.05307712
93	0xbc692137	-0.01422911
94	0x3c76d8cf	0.01506634
95	0x3ce8e121	0.028427662
96	0xbcf80849	-0.030277388
97	0x3b40211a	0.0029316605
98	0xbd2a3e8d	-0.04156356
99	0xbb946368	-0.0045284517
100	0xbd501d2f	-0.05080908
101	0xbc5233e6	-0.012829756
102	0xbccbe545	-0.024889598
103	0xbc0c11fc	-0.00854921
104	0xbd1f4708	-0.0388861
105	0x3b85a449	0.004078422
106	0xbbf5ccb5	-0.0075012096
107	0xbc35898e	-0.011080159
108	0x3d15b792	0.03655202
109	0xbb86f700	-0.0041188
110	0x3c9e19b0	0.019299358
111	0xbc990a76	-0.018681746
112	0x3d213e49	0.03936604
113	0xbadc06f6	-0.0016786742
114	0xbc84bffa	-0.016204823
115	0xbc909562	-0.017649356
116	0xbc087810	-0.008329406
117	0x3d3dfb1a	0.046382047
118	0x3ca0e398	0.019639775
119	0x3c084e19	0.008319401
120	0x3d50c6c3	0.050970804
121	0x3a2904a1	0.0006447528
122	0xbbefb1f1	-0.0073149134
123	0x3c96f74b	0.018428465
124	0xbc32ce0f	-0.010913386
125	0xbde108e9	-0.109880276
126	0xbe3b6138	-0.18298805
127	0xbe326e78	-0.17424953
128	0xbdd5a8b2	-0.10432567
129	0xbdd28e2a	-0.10281022
130	0xbd503f53	-0.05084164
131	0xbd709ac3	-0.058741342
132	0xbcade1e4	-0.021225877
133	0x3c0a0735	0.00842457
134	0x3c928083	0.017883545
135	0x3d05b866	0.03264656
136	0x3b5a168e	0.0033277604
137	0xbc0ed8d1	-0.008718685
138	0x3d241a67	0.04006424
139	0x3d05ed0b	0.032696765
140	0x3b39c658	0.0028346982
141	0xbbb57b62	-0.00553839
142	0xbc2793dc	-0.0102281235
143	0x3c985510	0.018595248
144	0x3d25e32a	0.040499844
145	0x3d30a832	0.043129154
146	0x3cd5bd9b	0.026091387
147	0x3de1ebef	0.11031329
148	0x3e00b8a0	0.12570429
149	0x3df71a45	0.120655574
150	0x3d97a030	0.074036
151	0x3d532715	0.051550943
152	0xbdca587e	-0.0988016
153	0xbe1d77a3	-0.15377669
154	0xbeae9843	-0.3410054
155	0xbe9ce364	-0.30642235
156	0xbe92cf78	-0.2867391
157	0xbe4defa9	-0.20110954
158	0xbe07022b	-0.13184421
159	0xbde6c930	-0.11268842
160	0x3b0b8866	0.0021291017
161	0xbda10bd3	-0.078635834
162	0xbdb88b28	-0.09010917
163	0xbcb52086	-0.022110235
164	0xbca2c79f	-0.019870577
165	0xbcdc6214	-0.026902236
166	0x3cbe00ab	0.023193678
167	0x3afefbde	0.0019453724
168	0xbc6dbb6f	-0.01451002
169	0xbc8fcf21	-0.017554821
170	0x3d1911f7	0.03737065
171	0x3d9887e9	0.07447798
172	0x3d778238	0.06042692
173	0x3d435b7c	0.04769467
174	0x3e05b056	0.13055548
175	0x3e023606	0.12715921
176	0x3e1945ae	0.14967987
177	0x3e871d67	0.2638962
178	0x3ea34e56	0.31895703
179	0x3e24d5d1	0.1609719
180	0x3d30be60	0.043150306
181	0x3c4b7e70	0.012420282
182	0xbd8e6974	-0.06953707
183	0xbd7c7335	-0.061633307
184	0xbde0c5d4	-0.10975233
185	0xbd315012	-0.04328925
186	0xbe2b77c2	-0.16744903
187	0xbe51c4e0	-0.20485258
188	0xbde9e654	-0.11420885
189	0xbd9f0d84	-0.0776625
190	0xbdde656f	-0.10859191
191	0xbdd22f1b	-0.10262891
192	0x3bd3e5b3	0.0064665913
193	0x3c3dce5b	0.0115848435
194	0xbcc9d810	-0.02463916
195	0xbb6b91a1	-0.0035944956
196	0x3c40c743	0.011766258
197	0xbc50fed7	-0.012756071
198	0x3d289dcc	0.04116611
199	0x3ccd7a42	0.025082711
200	0x3dc3c786	0.095595405
201	0x3da8fa2f	0.08250844
202	0x3e19b00d	0.15008564
203	0x3defadb6	0.117030546
204	0x3e49ae3e	0.19695374
205	0x3e4e28bc	0.20132726
206	0x3e0fa8ea	0.1402928
207	0x3df0ce60	0.11758113
208	0x3ea28bb7	0.3174722
209	0x3ee3aa5e	0.44465917
210	0x3eb6cfaf	0.35705325
211	0x3e057023	0.13031058
212	0xbb2fb849	-0.0026812723
213	0x3cab2155	0.020889917
214	0xbe1e538f	-0.15461563
215	0xbe352959	-0.17691554
216	0xbd9171b6	-0.07101767
217	0xbdf3897e	-0.11891459
218	0xbe2d8bde	-0.16947886
219	0xbe0ea32b	-0.13929431
220	0xbd5ad096	-0.05342158
221	0xbd3d459f	-0.046208974
222	0xbcb8710a	-0.022514839
223	0x3d2f6626	0.042822026
224	0x3d1f2b7f	0.03885984
225	0x3d25bb9d	0.040462125
226	0x3ce132f4	0.027490117
227	0x3cced233	0.025246715
228	0x3de02d0c	0.10946092
229	0x3dd43733	0.10362091
230	0x3cc9e4b0	0.02464518
231	0x3da3b40a	0.07993324
232	0x3e0b3c28	0.13597167
233	0x3de04b7e	0.10951899
234	0x3e30e9a0	0.17276621
235	0x3e8c28df	0.27374932
236	0x3e91013d	0.28321257
237	0x3eba3f79	0.3637655
238	0x3eb44d6e	0.35215324
239	0x3e0cd53a	0.13753214
240	0x3d203ba7	0.03911939
241	0x3cf4a120	0.029861987
242	0xbd6410c7	-0.055680063
243	0xbd204e9a	-0.03913746
244	0xbdf7da10	-0.12102139
245	0xbd0997b7	-0.033591952
246	0xbd388caf	-0.04505604
247	0xbdccd467	-0.1000145
248	0xbdd15905	-0.10222057
249	0xbc89ae85	-0.01680685
250	0x3c74e83d	0.014947948
251	0xbcb14655	-0.021639982
252	0x3b836d99	0.004010868
253	0xbca73d68	-0.020415023
254	0x3d49ddb2	0.04928369
255	0x3d57240d	0.052524615

input_fc.bias f4 [250]
0	0xbce11023	-0.027473515
1	0xbba218f9	-0.0049468246
2	0xbc315e1b	-0.010825659
3	0xbd0f462b	-0.034979027
4	0xbcb286e9	-0.021792846
5	0x3ca54065	0.020172307
6	0xbc29eaf0	-0.010370955
7	0xbd4ea68b	-0.050451797
8	0xbc3b7fbb	-0.011444028
9	0xbc82d12b	-0.01596888
10	0xbc72bf95	-0.0148161845
11	0x3adc887c	0.0016825343
12	0xbcbe9333	-0.02326355
13	0xbcc80b84	-0.024419554
14	0xbac15938	-0.0014751321
15	0xbc50ed60	-0.012751907
16	0xbccdbec8	-0.025115386
17	0x3d070253	0.0329612
18	0xbc94c8a9	-0.018162088
19	0xbd0ce213	-0.03439529
20	0xbcf4142e	-0.029794779
21	0x3c11bf63	0.008895728
22	0xbd35a561	-0.04434717
23	0xbd28ba76	-0.041193448
24	0xbc235de3	-0.009971115
25	0xbca1a586	-0.019732248
26	0xbcbb5864	-0.022869296
27	0x3b8e74bb	0.0043474114
28	0xbb1e63a5	-0.002416828
29	0x3b01dd6f	0.0019815823
30	0xbc75cf42	-0.015003027
31	0xba2f9104	-0.0006697329
32	0xbb1f515b	-0.0024309966
33	0xbd5b68be	-0.053566687
34	0xbba7f775	-0.0051259347
35	0xbd18e7fc	-0.037330613
36	0xbcba0f07	-0.022712244
37	0x3c07c206	0.008286005
38	0x3c6993cc	0.014256429
39	0xbc83afe1	-0.016075077
40	0xbc935657	-0.017985506
41	0xbc3be8ec	-0.011469107
42	0xbcd767e4	-0.026294656
43	0xbc368229	-0.011139431
44	0xbca47ee5	-0.02008004
45	0xbd4c8bc9	-0.049937997
46	0x3c35f4d6	0.011105737
47	0xbc93b7b1	-0.018031927
48	0x3cb5379e	0.022121247
49	0x3c4d4041	0.012527526
50	0x3a64d16b	0.00087287155
51	0xbc4cc787	-0.012498743
52	0xbc6bdf79	-0.014396542
53	0x3b816eea	0.0039499896
54	0xbd2226a5	-0.039587636
55	0x3bd1055d	0.006378813
56	0xbc741e31	-0.014899776
57	0xbca35502	-0.019937996
58	0xbd34ef9b	-0.044173818
59	0xbc468296	-0.012116095
60	0x3b378797	0.0028004402
61	0xbb3ab92b	-0.0028491716
62	0x3cc75cb7	0.024336202
63	0x3caa82ab	0.02081426
64	0x3c18e10d	0.009331
65	0xbce1862f	-0.027529804
66	0xbb618212	-0.0034409803
67	0xbd36c19a	-0.044618227
68	0xbca1c30c	-0.019746326
69	0xbad0d733	-0.0015933275
70	0xbcf5465d	-0.029940778
71	0xbd01e953	-0.031716656
72	0x3ccaa05c	0.024734668
73	0x3cde793c	0.027157418
74	0xbd344d19	-0.04401884
75	0xbc9e1278	-0.019295916
76	0x3b343134	0.0027495148
77	0xbd1d39a2	-0.03838504
78	0xbd0469fa	-0.03232763
79	0xbceb62d7	-0.028733654
80	0xbcf60851	-0.030033262
81	0xbd36ed94	-0.044660166
82	0x3cbc4f21	0.02298695
83	0x3bfdbdea	0.007743587
84	0x3b51cea8	0.0032014046
85	0x3c215129	0.00984601
86	0xbc012ba9	-0.007883945
87	0xbcde1587	-0.027109874
88	0xbd1110b3	-0.035416316
89	0x3c17339f	0.009228616
90	0x3ca4901c	0.020088248
91	0xbd3097b9	-0.043113444
92	0xbce17b67	-0.027524663
93	0x3b4139d6	0.0029483936
94	0xbd20fcaf	-0.039303478
95	0x3cf5c5bb	0.030001512
96	0x3c913105	0.01772357
97	0x3aa2844e	0.0012399049
98	0x3c290499	0.010316038
99	0xbca332f9	-0.019921767
100	0xbc6b5885	-0.014364366
101	0xbd06fe22	-0.032957204
102	0xbd27eab7	-0.040995326
103	0x3bae46f5	0.0053185173
104	0xbd4e390e	-0.05034738
105	0x3b860cad	0.0040908665
106	0x3c3a3d33	0.01136713
107	0x3cc40ca4	0.023931809
108	0xbd00d4a2	-0.031452782
109	0xbbb0eb47	-0.005399141
110	0xbbaccacc	-0.0052731987
111	0x3c5cf54a	0.013486216
112	0xbbc49d37	-0.006000187
113	0xbbc8e2ac	-0.006130537
114	0xbd17f1d4	-0.03709586
115	0x3b7e8fbd	0.0038843
116	0x3b8da691	0.004322835
117	0x3d124725	0.03571238
118	0x3c1731fb	0.009228225
119	0x3cd10a87	0.025517715
120	0x3bfc60ee	0.0077019846
121	0xbb2b28f3	-0.0026116937
122	0xbca674d1	-0.020319374
123	0xbae4db11	-0.0017460306
124	0x3ce00082	0.027343992
125	0xbd4684f1	-0.048466627
126	0xbc56d41c	-0.013112094
127	0xbce7becf	-0.028289227
128	0xbd0c248b	-0.034214538
129	0x3c855c34	0.016279317
130	0xbcc4adae	-0.024008598
131	0x3b8899a1	0.0041687046
132	0x3c31b41f	0.010846167
133	0xbae660ab	-0.0017576417
134	0x3bef9d9c	0.0073124897
135	0xbcdc8695	-0.026919642
136	0x3b54ece0	0.0032489821
137	0xbc4f41fa	-0.012650007
138	0x3b2600fb	0.0025330174
139	0x3aee10ca	0.0018162963
140	0xbc1e4c90	-0.009661809
141	0xbd18e231	-0.037325088
142	0xbc84c9ce	-0.01620951
143	0x3d4a417b	0.049378853
144	0xbcb40962	-0.02197713
145	0xbd0325d2	-0.03201849
146	0xbc48c29b	-0.012253429
147	0xbc14909d	-0.009067682
148	0x3c55b77b	0.013044233
149	0xbd0bb8b6	-0.0341117
150	0xbc76c199	-0.015060806
151	0xbc5ae192	-0.013359444
152	0x3cf102f5	0.029420355
153	0x3c974806	0.01846696
154	0xbd277a42	-0.04088808
155	0x3c5074a7	0.012723125
156	0xbce94ce6	-0.02847905
157	0xbcf39c5f	-0.02973765
158	0xbc01dfa5	-0.007926856
159	0xbd0927d7	-0.03348526
160	0xbd10ac5f	-0.035320636
161	0xbce2b2b1	-0.027673097
162	0xbc659534	-0.014012624
163	0xbd06bc30	-0.032894313
164	0xbcd8031d	-0.026368672
165	0x3b0f1353	0.0021831586
166	0x3c867599	0.016413497
167	0xba54a76c	-0.0008112106
168	0xbd60954b	-0.054829877
169	0xbb8af1b6	-0.00424024
170	0xbcd995b4	-0.026560642
171	0x3c883cda	0.016630579
172	0x3cce5653	0.025187647
173	0x3a239833	0.0006240636
174	0xbb709c04	-0.0036714086
175	0xbc5ba36b	-0.013405661
176	0xbc2bb698	-0.010480545
177	0x3c56032d	0.013062281
178	0x3c04cb6c	0.00810514
179	0xbd118d4f	-0.035535153
180	0xbc8a65a2	-0.016894165
181	0xbd123872	-0.03569836
182	0xbcf34e43	-0.029700404
183	0xbc9942d7	-0.01870863
184	0xbd457e99	-0.048216436
185	0x3bc95527	0.006144184
186	0xbc1b5559	-0.009480798
187	0xbd2c993b	-0.04213832
188	0xbb975db1	-0.004619323
189	0x3ccf6641	0.025317313
190	0x3c417f8e	0.011810197
191	0xbc2e5082	-0.010639312
192	0x3bc7db6c	0.006099155
193	0xbbee6509	-0.007275228
194	0xbcaf3ac9	-0.021390336
195	0xba1e3502	-0.00060351205
196	0xbc124ddf	-0.008929699
197	0xbcdc869a	-0.026919652
198	0xbca16df6	-0.019705754
199	0xbcf354ae	-0.029703464
200	0x3b312cd9	0.0027034788
201	0xbb452b5b	-0.0030085656
202	0xbd0de90e	-0.034646086
203	0xbc56ced3	-0.013110834
204	0x3cd316a4	0.025767632
205	0xbd155ce6	-0.036465548
206	0x3c97b0d6	0.01851694
207	0xbd5bf087	-0.05369618
208	0x3a238337	0.0006237509
209	0xbc48d500	-0.012257814
210	0xbcf2adbc	-0.029623859
211	0xbcdd7591	-0.0270336
212	0xbccc9182	-0.024971727
213	0x3b03db06	0.0020119562
214	0xbd3ac040	-0.0455935
215	0xbd0e13ee	-0.034686975
216	0x3b505a4a	0.0031792098
217	0xbc947857	-0.018123789
218	0x3cd64f63	0.026160901
219	0xbcd947c2	-0.026523475
220	0x3cd4f6f2	0.025996659
221	0xbc3d913c	-0.011570271
222	0xbc5004d8	-0.012696467
223	0x3c62654b	0.013818095
224	0x3bff8844	0.0077982266
225	0xbd08543e	-0.033283465
226	0xbcd937a6	-0.026515793
227	0x3ce6fca8	0.028196648
228	0x3bd99e06	0.0066411523
229	0x3ba76426	0.005108374
230	0xbce9eff7	-0.028556807
231	0xbd1c5c0f	-0.03817373
232	0x3c92970a	0.017894287
233	0xbbe34d02	-0.0069366703
234	0x3ce8b79e	0.028407868
235	0xbcdbb82e	-0.026821222
236	0xbce57687	-0.02801062
237	0xbcdee373	-0.027208066
238	0x3c5edf1a	0.013602996
239	0xbd25cd58	-0.040479034
240	0xbcd32699	-0.02577524
241	0xbce35ac4	-0.027753241
242	0xbbcd6ee2	-0.006269322
243	0xbc095aef	-0.008383497
244	0x3c018e90	0.007907525
245	0xbc7de478	-0.015496366
246	0x3ba84d3f	0.0051361616
247	0xbc6cdfbe	-0.014457641
248	0x3b825d65	0.0039784187
249	0x3cbb7473	0.022882676

hidden_fc.weight f4 [100, 250]
0	0x3e0cd0a5	0.13751467
1	0x3e158fec	0.14605683
2	0x3ddfa96f	0.10920989
3	0xbd346037	-0.04403707
4	0x3ce130d9	0.027489113
5	0xbccf0ff7	-0.025276167
6	0xbd27c4a1	-0.040959004
7	0xbc534ec6	-0.012897199
8	0xbe34987c	-0.17636293
9	0x3ccc8a28	0.024968222
10	0x3cd6e77d	0.02623343
11	0x3d768479	0.06018493
12	0xba6ee73c	-0.0009113436
13	0xbc1c9362	-0.009556623
14	0x3d36ccba	0.044628836
15	0xbe115dbb	-0.14195912
16	0x3cd7b8c7	0.026333226
17	0x3d25de7e	0.04049539
18	0xbc9546a3	-0.018222159
19	0x3de1c2b8	0.11023468
20	0xbb6cd1ea	-0.003613586
21	0x3df4ae96	0.11947362
22	0xbd4c87ea	-0.049934305
23	0xbcb355e5	-0.021891544
24	0x3d2d5ae2	0.042323
25	0xbcda2b86	-0.026632082
26	0xbe33a12b	-0.1754195
27	0xbce7e66e	-0.02830812
28	0xbdea5cf9	-0.114435144
29	0x3d5764c2	0.052586325
30	0xbccae594	-0.024767675
31	0xbd93dca3	-0.072198175
32	0xbd192ca4	-0.03739609
33	0x3e11addc	0.14226478
34	0x3e250930	0.16116786
35	0x3d502664	0.050817862
36	0x3d504758	0.05084929
37	0x3db26374	0.087103754
38	0x3d0692d0	0.032854855
39	0xbd04a23e	-0.03238129
40	0x3c66e247	0.014092035
41	0x3e05abac	0.13053769
42	0x3bee5aab	0.007273992
43	0x3ca9184a	0.020641465
44	0x3d61c9a8	0.055123955
45	0xbea26ebc	-0.3172511
46	0x3c9c9096	0.019111913
47	0x3db36fc5	0.08761553
48	0xbd56bf06	-0.052428268
49	0xbe1c2f86	-0.15252504
50	0x3e03b062	0.12860253
51	0xbe46d693	-0.19417791
52	0xbd4763df	-0.04867923
53	0x3d878ebe	0.06619023
54	0xbc2646ba	-0.010148698
55	0xbc85ce36	-0.01633368
56	0xbc29444b	-0.010331224
57	0xbc112928	-0.00885991
58	0x3e7f6539	0.24940957
59	0xbcb188e3	-0.021671718
60	0xbbfb7dd5	-0.0076749125
61	0xbccf3d5e	-0.025297817
62	0xbd8ad637	-0.067791395
63	0x3d4e1a91	0.050318304
64	0xbd08b4c0	-0.0333755
65	0xbd3487aa	-0.04407469
66	0x3d541209	0.051775012
67	0xbd9fd690	-0.078045964
68	0xbdf1be93	-0.11803927
69	0x3c105e05	0.0088114785
70	0x3bec49b4	0.0072109345
71	0xbb0b7925	-0.0021281925
72	0xbd352d4b	-0.044232648
73	0xbbbce60c	-0.0057647284
74	0xbc2ebc87	-0.010665066
75	0x3c731fb8	0.014839105
76	0xbcd91933	-0.026501274
77	0xbd57c051	-0.05267364
78	0x3dccc21d	0.09997962
79	0x3d915f2f	0.07098233
80	0x3c841d66	0.0161273
81	0x3e36c937	0.17850195
82	0x3d3b07f7	0.045661893
83	0x3cea13a9	0.028573828
84	0xbdbd1554	-0.09232584
85	0xbe4c5121	-0.19952823
86	0xbd4e4aa8	-0.050364166
87	0x3d504836	0.050850116
88	0x3d22e2ad	0.039766956
89	0xbd787991	-0.06066281
90	0x3d24d277	0.040239777
91	0xbcdc3f4b	-0.02688565
92	0xbce811cc	-0.028328799
93	0x3d8e8c08	0.069603026
94	0xbd16ece0	-0.036846995
95	0xbd8aef38	-0.067839086
96	0x3c9d662f	0.019213764
97	0xbdc6c790	-0.09706032
98	0x3b34b82a	0.002757559
99	0x3c9e328e	0.019311216
100	0xbc8da9f2	-0.01729295
101	0x3c2d887b	0.0105916215
102	0x3e3a19bc	0.1817388
103	0xbe5d2fdc	-0.21600288
104	0x3d9d4fb4	0.07681218
105	0x3c604433	0.013688135
106	0x3c517f9c	0.012786772
107	0x3cb7611e	0.022385176
108	0xbcfbee97	-0.030753417
109	0x3dda7212	0.106662884
110	0xbc52bb5c	-0.012862053
111	0xbc8b42cd	-0.016999627
112	0xbd78243b	-0.060581427
113	0xbcf66e7b	-0.030081978
114	0xbe1134eb	-0.14180343
115	0xbde5abb3	-0.1121439
116	0xbcdfa9fd	-0.027302736
117	0x3b56cb67	0.0032775046
118	0xbc63d279	-0.013905161
119	0x3e05682b	0.13028018
120	0xbbfb18a9	-0.007662852
121	0xbc2aec1e	-0.010432271
122	0x3dc5efa0	0.096648455
123	0x3d85ced7	0.06533592
124	0xbd4bf68a	-0.049795665
125	0x3ddba271	0.107243426
126	0x3d54fafe	0.051997177
127	0x3d546f6a	0.051864065
128	0xbd13c402	-0.0360756
129	0xbcfbbdc0	-0.030730128
130	0x3d58ad94	0.052899912
131	0xbd8219e3	-0.06352594
132	0xbd4e66ae	-0.05039089
133	0x3db5378c	0.08848485
134	0x3c755f1a	0.014976287
135	0x3c519fad	0.012794417
136	0x3d83c712	0.06434454
137	0x3d620524	0.055180684
138	0x3c0192a7	0.0079085
139	0xbdd56430	-0.104195
140	0x3d674115	0.05645855
141	0x3da78622	0.08179881
142	0xbc86214a	-0.016373295
143	0x3cd53d53	0.026030218
144	0x3db3cd5b	0.08779403
145	0x3d357c34	0.044307902
146	0xbd25f842	-0.04051996
147	0x3d1f85c8	0.038945943
148	0xbb83d925	-0.0040236884
149	0xbb92117c	-0.0044576507
150	0x3cccc4f9	0.024996268
151	0xbcdd07a3	-0.02698118
152	0xbc28f6a7	-0.010312713
153	0xbb4726ac	-0.003038804
154	0xbce34024	-0.027740546
155	0x3ca3d825	0.020000527
156	0xbcc82776	-0.024432879
157	0x3d60c366	0.054873846
158	0xbce5a184	-0.028031118
159	0xbed60574	-0.41801035
160	0xbe6c9693	-0.23104315
161	0x3bb41b99	0.005496454
162	0xbd182217	-0.037141886
163	0xbcec3c81	-0.028837444
164	0xbce091f2	-0.027413342
165	0x3da586d0	0.08082354
166	0xbdd8608c	-0.1056529
167	0x3d1e0702	0.038580902
168	0x3cb39d8a	0.021925706
169	0xbe6a559b	-0.22884218
170	0xbc98c8bb	-0.018650403
171	0xbe10e4d9	-0.14149798
172	0xbd5a2a61	-0.053263072
173	0xbbab6f27	-0.0052317563
174	0xbd15d08b	-0.036575835
175	0x3e0b25f0	0.13588691
176	0x3dc6a09d	0.09698603
177	0xbd79edfb	-0.06101797
178	0xbd2aa023	-0.041656625
179	0x3da4baf1	0.08043469
180	0x3d30388b	0.043022674
181	0xbc6ec2e4	-0.014572833
182	0x3c33b16a	0.010967592
183	0xbc95fcdd	-0.018309051
184	0x3ca66621	0.02031237
185	0xbbe897ff	-0.0070981975
186	0xbc9a9b21	-0.0188728
187	0x3b174981	0.0023084583
188	0x3d5c6a3b	0.053812247
189	0x3bc6cfde	0.00606726
190	0x3d886f9f	0.06661915
191	0x3bb732c7	0.00559077
192	0xbd45be57	-0.048277225
193	0xbcdd6913	-0.027027642
194	0xbcdeb2a7	-0.027184797
195	0x3dd4f57b	0.10398384
196	0xbab35985	-0.0013683295
197	0xbaa452a2	-0.0012536834
198	0xbcc4d4b3	-0.024027204
199	0x3c8bf6c0	0.017085433
200	0xbd06355a	-0.032765724
201	0x3d090c3d	0.033458937
202	0xbe0b1cc3	-0.1358519
203	0x3d0b1fb2	0.033965774
204	0x3d1b81cf	0.037965592
205	0x3d2e3448	0.042530328
206	0x3d2c9161	0.04213083
207	0x3cc6337b	0.02419447
208	0x3c4d507b	0.012531395
209	0xbe104857	-0.14090095
210	0x3d4bcf64	0.04975833
211	0x3b04fd75	0.0020292674
212	0x3e0c0c72	0.13676623
213	0xbcf5ee04	-0.030020721
214	0x3da611e4	0.08108881
215	0x3c8b4dbf	0.017004846
216	0x3d22d92a	0.039757885
217	0xbd669f7d	-0.056304444
218	0xbd5727e0	-0.052528262
219	0xbd114900	-0.03547001
220	0x3cdf4d0e	0.027258422
221	0x3db3374f	0.08750784
222	0xbd888543	-0.06666043
223	0x3c936be3	0.01799578
224	0xbd8213b8	-0.06351417
225	0xbd187874	-0.037224248
226	0xbd3bfe07	-0.045896556
227	0xbd362dbb	-0.044477206
228	0x3d7f0e6b	0.06226961
229	0xbe3ac33a	-0.18238536
230	0xbe05d936	-0.1307114
231	0xbd8007cb	-0.062514864
232	0xbe0f5f23	-0.14001136
233	0x3d75e6d9	0.060034607
234	0x3c926756	0.01787154
235	0x3c3efdc0	0.011657178
236	0x3d1cefb6	0.038314544
237	0x3d9330b8	0.07187027
238	0x3b6f6680	0.00365296
239	0x3c2155b9	0.009847098
240	0x3d08b4d6	0.033375584
241	0x3df0f7c6	0.11766009
242	0xbd17d58b	-0.037068885
243	0x3d024c52	0.031811066
244	0xbe3c44be	-0.18385598
245	0x3c6fde4c	0.014640402
246	0x3cb73c4e	0.022367623
247	0xbc10bb90	-0.008833781
248	0x3ca6cf7a	0.020362604
249	0x3cfd525b	0.03092306
250	0xbd87ada3	-0.066249155
251	0xbd5ba28d	-0.053621817
252	0x3c8e67b6	0.017383438
253	0xbc149676	-0.009069076
254	0x3e0a1eb4	0.13488275
255	0xbd7b54b1	-0.061360065

hidden_fc.bias f4 [100]
0	0x3cae913d	0.02130949
1	0x3d98140d	0.074256994
2	0x3d890178	0.06689733
3	0x3dc31ef0	0.09527385
4	0xbde48ac7	-0.11159282
5	0x3e060c4e	0.13090631
6	0xbc12822d	-0.008942169
7	0x3ce3c343	0.027803069
8	0x3d958c70	0.07302177
9	0xbd2a10a1	-0.041519765
10	0xbc8ab9d9	-0.016934322
11	0xbe21a8b2	-0.15787008
12	0xbd856b9f	-0.06514668
13	0xbca0c1fa	-0.019623745
14	0xbc1ae41c	-0.0094538
15	0x3d3cf6dd	0.046133865
16	0x3ceb0526	0.028688978
17	0x3dbab57b	0.09116646
18	0xbd8608e1	-0.06544662
19	0x3b1a5ce3	0.00235539
20	0xbe13ee10	-0.14446282
21	0xbdd8707e	-0.10568331
22	0xbd7c7676	-0.06163641
23	0x3e17055d	0.1474814
24	0x3ca069fb	0.019581785
25	0xbd533534	-0.05156441
26	0xbdfeed6b	-0.12447628
27	0xbd6c5c1b	-0.057705026
28	0x3c30dffe	0.010795591
29	0xbe31bf0c	-0.17358035
30	0x3d03335a	0.032031395
31	0xbd503a86	-0.050837062
32	0xbdd4d688	-0.10392481
33	0xbdd6f176	-0.10495274
34	0x3e7c732f	0.24653314
35	0xbde8e5af	-0.11371934
36	0xbd83625e	-0.064152464
37	0xbcb8bc5a	-0.02255075
38	0xbd18d76b	-0.037314814
39	0x3d279422	0.040912755
40	0x3d8d4ee3	0.06899812
41	0xbd9b2fab	-0.07577451
42	0x3a0139c0	0.0004929565
43	0x3e050ddc	0.12993568
44	0xbd8d7e31	-0.06908835
45	0xbda3e00a	-0.080017164
46	0xbdca983e	-0.09892319
47	0xbdd4c6ce	-0.103894815
48	0x3ca3bd9c	0.019987874
49	0xbd984d66	-0.074366376
50	0xbda0c162	-0.07849385
51	0xbcfa2e63	-0.030539697
52	0xbd93e53c	-0.07221457
53	0x3e3a1ed4	0.18175822
54	0xbd56a7aa	-0.05240599
55	0x3e20e823	0.15713553
56	0xbd8fc332	-0.070196524
57	0xbac562eb	-0.0015059387
58	0x3d0ae3b1	0.03390855
59	0xbcbdad8e	-0.023154046
60	0xbd7d8c84	-0.061901584
61	0x3e5a2384	0.2130261
62	0x3d41e6d7	0.047339287
63	0xbc0a686b	-0.008447747
64	0x3d9906b0	0.07471979
65	0xbd7255c5	-0.059163827
66	0xbe008cc6	-0.12553701
67	0xbb6b91c4	-0.0035945037
68	0x3dfb7753	0.12278619
69	0x3e8fa90e	0.28058666
70	0x3d39fb8f	0.04540592
71	0x3e9a16c6	0.300955
72	0xbdb23ec8	-0.08703381
73	0xbe69e720	-0.22842073
74	0xbd27770c	-0.040885016
75	0xbc901954	-0.017590202
76	0x3dbe7bf3	0.09300985
77	0x3e543566	0.20723495
78	0x3d061ae2	0.03274048
79	0x3e57f54a	0.21089664
80	0xbdc177a6	-0.09446649
81	0xbceafd62	-0.028685275
82	0x3dbf7598	0.09348601
83	0xbd9567d1	-0.07295192
84	0xbdebfb64	-0.11522558
85	0x3d22a709	0.03971008
86	0xbdfbf0f9	-0.12301821
87	0x3e385c63	0.18003993
88	0xbd4e49bc	-0.050363287
89	0xbd88ace9	-0.06673605
90	0xbd8de0da	-0.06927653
91	0xbcd411f0	-0.02588746
92	0xbdab9dfc	-0.083797425
93	0xbd43cb4d	-0.047801305
94	0x3db96af9	0.090536065
95	0x3c77603a	0.015098626
96	0x3db36e83	0.08761313
97	0x3e1e4050	0.15454221
98	0xbd02299f	-0.031777974
99	0xbdb10c08	-0.08644873

output_fc.weight f4 [10, 100]
0	0xbd1013e5	-0.035175223
1	0xbde30592	-0.11085047
2	0x3d90ef15	0.07076851
3	0xbe718cba	-0.23588839
4	0xbdaaff8e	-0.083495244
5	0x3dac5395	0.084143795
6	0x3d5ce220	0.053926587
7	0x3d056db8	0.03257534
8	0xbead78f4	-0.33881342
9	0x3c4b114e	0.0123942625
10	0x3d2c7a33	0.042108726
11	0xbdc4c8d7	-0.0960862
12	0xbe9f34ba	-0.31094915
13	0x3e648c16	0.22319064
14	0xbdcaa677	-0.09895032
15	0xbedb533f	-0.4283695
16	0x3e0745a5	0.13210161
17	0xbd07a416	-0.03311547
18	0x3dbd7a41	0.09251834
19	0x3d2ce746	0.042212747
20	0xbe7d10dd	-0.24713464
21	0x3d73560a	0.059408225
22	0x3df3a64c	0.11896953
23	0xbde43433	-0.11142769
24	0x3e1543fe	0.14576718
25	0x3d4cbb84	0.049983516
26	0xbd881e8c	-0.06646451
27	0x3c7af6e1	0.01531765
28	0x3c33b3ce	0.010968162
29	0xbea87505	-0.3290178
30	0x3ce9ce71	0.028540822
31	0xbb9fac28	-0.0048728175
32	0xbe041468	-0.1289841
33	0x3deb2c40	0.114830494
34	0xbd88a074	-0.06671229
35	0xbeb6cbd8	-0.35702395
36	0xbdd8778b	-0.10569676
37	0xbe13854a	-0.14406314
38	0xbdecb273	-0.11557474
39	0xbd28a57a	-0.041173436
40	0x3dba0c1d	0.09084342
41	0x3bf35763	0.007426189
42	0x3da3abd9	0.07991762
43	0xbe8b6432	-0.2722488
44	0x3e0445e1	0.12917282
45	0x3c9e6543	0.019335395
46	0xbdb646eb	-0.08900245
47	0xbe09acdd	-0.13444848
48	0xbe531952	-0.20615128
49	0x3d9c0fad	0.076201774
50	0x3d8b0f8f	0.06790077
51	0x3c77cb41	0.015124143
52	0xbbd9489d	-0.0066309706
53	0xbe43742a	-0.19087282
54	0x3e34cfc8	0.17657387
55	0xbe36976e	-0.17831203
56	0x3e3dafc8	0.18524086
57	0x3d91e36a	0.07123454
58	0x3d9a3576	0.07529728
59	0x3cd1304e	0.025535729
60	0x3c8a3329	0.016870098
61	0x3dbb950a	0.09159286
62	0xbd6e92ef	-0.058245596
63	0x3de0c2c3	0.10974648
64	0x3d8b1f88	0.067931235
65	0x3e1a40b1	0.1506374
66	0x3d249a24	0.040186062
67	0xbe09d494	-0.13459998
68	0xbeb21b93	-0.34786662
69	0x3c9b6067	0.018966867
70	0xbc260b19	-0.010134482
71	0x3daceeaa	0.08443959
72	0x3d0593ea	0.032611765
73	0xbd1d6ba5	-0.038432736
74	0xbc58c044	-0.013229433
75	0xbeae0283	-0.3398629
76	0xbdb70d04	-0.089380294
77	0xbceb25de	-0.02870458
78	0xbd223e36	-0.03961011
79	0xbe4639d5	-0.19357999
80	0x3ae0c185	0.0017147517
81	0xbd02a775	-0.03189798
82	0xbd7c26c0	-0.061560392
83	0xbd460bdc	-0.048351154
84	0x3e65ed49	0.22453798
85	0xbc9cd67e	-0.019145247
86	0x3d7c9c61	0.061672572
87	0xbe324408	-0.17408764
88	0xbe893a8a	-0.26802474
89	0xbd707cc4	-0.058712736
90	0xbc900ec0	-0.017585158
91	0x3e259eea	0.16173902
92	0x3df79514	0.12088981
93	0xbdfd70f3	-0.12375059
94	0xbd632daa	-0.05546347
95	0xbdc69881	-0.096970566
96	0x3decba91	0.11559022
97	0xbdc24af4	-0.094869524
98	0xbdde8a89	-0.10866267
99	0xbd93ae58	-0.07210988
100	0xbe0dd870	-0.13852096
101	0xbdf6cc1d	-0.1205065
102	0xbe10921c	-0.14118236
103	0xbe1c7563	-0.15279154
104	0x3e98f58d	0.2987484
105	0x3c94ba6e	0.018155303
106	0x3d11e0d2	0.035614796
107	0x3d5526e0	0.052039027
108	0xbe566a11	-0.20938899
109	0xbe70c1ea	-0.23511472
110	0xbd22b758	-0.03972563
111	0x3e543dc9	0.20726694
112	0x3de89b7c	0.11357781
113	0xbe80c01f	-0.25146577
114	0xbddb8e11	-0.107204564
115	0x3e010fd3	0.12603693
116	0x3d4c5f6d	0.049895693
117	0xbe21f287	-0.15815173
118	0x3b8a2b73	0.0042166053
119	0xbc970a77	-0.018437607
120	0x3e2f8002	0.17138675
121	0x3e520d50	0.20512891
122	0xbef40b16	-0.47664708
123	0xbe17615d	-0.14783235
124	0x3d3941ad	0.04522865
125	0x3c7ceea8	0.015437759
126	0x3e3859c4	0.18002993
127	0x3da3a257	0.07989948
128	0xbe0a18b5	-0.13485987
129	0xbe9e9a35	-0.30977026
130	0xbe5755ac	-0.21028775
131	0xbdc80711	-0.09766973
132	0x3e1cc138	0.15308082
133	0xbd3c5c82	-0.04598666
134	0xbd8d3f2d	-0.068968154
135	0x3d0a3316	0.033740126
136	0x3d13cf11	0.036086146
137	0xbc18bf56	-0.009322962
138	0xbdb7400b	-0.08947762
139	0x3d2be307	0.041964557
140	0xbd580e74	-0.05274816
141	0xbd120e5c	-0.035658225
142	0xbcd638b0	-0.026150078
143	0xbc84e9fc	-0.016224854
144	0xbe1a5461	-0.1507125
145	0x3cae90c2	0.02130926
146	0x3d78edc3	0.060773622
147	0x3e4910f0	0.19635367
148	0xbe8b969f	-0.27263352
149	0x3d12cfc4	0.035842672
150	0xbdeb1eaa	-0.11480458
151	0xbdcca6c1	-0.09992743
152	0xbda09f51	-0.07842887
153	0xbd6adbbf	-0.057338472
154	0x3d7ae7cd	0.06125622
155	0xbe97f359	-0.29677847
156	0x3e090d98	0.13384092
157	0xbedce30d	-0.43141976
158	0xbdfca438	-0.1233601
159	0xbe697f16	-0.22802386
160	0x3e26fa05	0.16306312
161	0x3bd3d08b	0.0064640692
162	0xbde46735	-0.11152498
163	0xbdfde637	-0.123974256
164	0x3d7d8145	0.06189086
165	0xbdd4ba27	-0.10387068
166	0x3daa74cf	0.08323061
167	0x3db6f5fa	0.08933635
168	0x3de70391	0.11279977
169	0xbea1bf47	-0.31591246
170	0x3daced69	0.0844372
171	0xbcd0718b	-0.025444767
172	0x3d7e3354	0.06206067
173	0x3d83a4de	0.0642793
174	0xbdb4b9b0	-0.088244796
175	0x3dce927b	0.10086533
176	0x3e1a6257	0.15076576
177	0x3d2f561b	0.042806726
178	0x3cd80c6d	0.026373113
179	0x3b106473	0.0022032529
180	0x3d4bff91	0.049804274
181	0xbd4dab2f	-0.05021208
182	0xba9b3d4e	-0.0011843832
183	0xbd31428f	-0.043276366
184	0xbdfb9525	-0.122843064
185	0xbd8b7e94	-0.06811252
186	0x3cb7bc16	0.022428554
187	0xbe5f74f4	-0.21821958
188	0xbdf1ab84	-0.11800292
189	0xbcda8b9d	-0.0266779
190	0xbe16a503	-0.14711384
191	0xbe0f88e9	-0.14017071
192	0x3e2c0f25	0.16802652
193	0x3dea58f9	0.114427514
194	0x3c9a07df	0.018802581
195	0xbe6a2e8b	-0.22869317
196	0xbdb5aee4	-0.08871248
197	0xbdd76560	-0.105173826
198	0xbdec338c	-0.11533269
199	0xbe021840	-0.12704563
200	0xbe12303c	-0.14276212
201	0x3b6ec8ae	0.0036435532
202	0xbef77f48	-0.48339295
203	0x3dc06f0f	0.09396183
204	0xbe79c83d	-0.24392791
205	0x3dd67338	0.10471195
206	0x3dcfb155	0.10141245
207	0xbe09888b	-0.13430993
208	0x3d44170e	0.04787355
209	0xbe7b7804	-0.24557501
210	0xbd7156bf	-0.05892062
211	0xbe904b9d	-0.28182688
212	0x3dfd748b	0.123757444
213	0xbeb39090	-0.3507123
214	0xbe0574d6	-0.1303285
215	0x3e098195	0.13428338
216	0x3d8d2ccc	0.0689331
217	0xbe5217ac	-0.20516843
218	0xbcbcc066	-0.023040961
219	0x3d15b565	0.036549944
220	0xbcf04196	-0.029328149
221	0xbe1ce79c	-0.15322727
222	0xbc117350	-0.00887759
223	0xbc30ec7d	-0.010798571
224	0xbe338f11	-0.17535044
225	0xbda31b0f	-0.079641454
226	0xbe49bd1e	-0.19701049
227	0xbdaa6503	-0.08320048
228	0x3e20fdb9	0.15721788
229	0x3b485756	0.0030569634
230	0x3bf991e5	0.007616269
231	0xbd9588d0	-0.073014855
232	0x3e31bb51	0.17356612
233	0x3da421aa	0.080142334
234	0xbde1d9ab	-0.11027845
235	0x3deb3fa8	0.11486751
236	0xbe5aacc2	-0.21354964
237	0xbe1038e3	-0.140842
238	0x3de0eeaf	0.10983025
239	0x3d82cb34	0.06386414
240	0x3c93c76a	0.018039424
241	0x3d69e9c7	0.057107713
242	0xbd45ea91	-0.048319403
243	0xbd50cbd8	-0.05097565
244	0x3d71da6f	0.059046205
245	0x3cef8943	0.029240256
246	0x3c08bc1d	0.008345631
247	0x3e1db435	0.15400775
248	0xbd73cb32	-0.059519954
249	0x3dbc5f0d	0.09197817
250	0x3d583372	0.052783437
251	0x3dfc4898	0.12318534
252	0x3c2ab7b8	0.0104197785
253	0x3dcbee74	0.09957591
254	0x3be4399a	0.0069648745
255	0x3d2b8fa8	0.04188505

output_fc.bias f4 [10]
0	0xbc2a8af3	-0.010409105
1	0xbd1ede60	-0.038786292
2	0xbe3d55aa	-0.1848971
3	0x3dbff538	0.09372944
4	0x3b400fa8	0.0029306207
5	0xbcab6daf	-0.020926325
6	0xbcdcac63	-0.02693767
7	0xbe3e9aff	-0.18613814
8	0x3e1a5226	0.150704
9	0xbbddb8cc	-0.0067664143
